node {
  name: "global_step/Initializer/zeros"
  op: "Const"
  attr {
    key: "_class"
    value {
      list {
        s: "loc:@global_step"
      }
    }
  }
  attr {
    key: "_output_shapes"
    value {
      list {
        shape {
        }
      }
    }
  }
  attr {
    key: "dtype"
    value {
      type: DT_INT64
    }
  }
  attr {
    key: "value"
    value {
      tensor {
        dtype: DT_INT64
        tensor_shape {
        }
        int64_val: 0
      }
    }
  }
}
node {
  name: "global_step"
  op: "VariableV2"
  attr {
    key: "_class"
    value {
      list {
        s: "loc:@global_step"
      }
    }
  }
  attr {
    key: "_output_shapes"
    value {
      list {
        shape {
        }
      }
    }
  }
  attr {
    key: "container"
    value {
      s: ""
    }
  }
  attr {
    key: "dtype"
    value {
      type: DT_INT64
    }
  }
  attr {
    key: "shape"
    value {
      shape {
      }
    }
  }
  attr {
    key: "shared_name"
    value {
      s: ""
    }
  }
}
node {
  name: "global_step/Assign"
  op: "Assign"
  input: "global_step"
  input: "global_step/Initializer/zeros"
  attr {
    key: "T"
    value {
      type: DT_INT64
    }
  }
  attr {
    key: "_class"
    value {
      list {
        s: "loc:@global_step"
      }
    }
  }
  attr {
    key: "_output_shapes"
    value {
      list {
        shape {
        }
      }
    }
  }
  attr {
    key: "use_locking"
    value {
      b: true
    }
  }
  attr {
    key: "validate_shape"
    value {
      b: true
    }
  }
}
node {
  name: "global_step/read"
  op: "Identity"
  input: "global_step"
  attr {
    key: "T"
    value {
      type: DT_INT64
    }
  }
  attr {
    key: "_class"
    value {
      list {
        s: "loc:@global_step"
      }
    }
  }
  attr {
    key: "_output_shapes"
    value {
      list {
        shape {
        }
      }
    }
  }
}
node {
  name: "global_step/IsVariableInitialized"
  op: "IsVariableInitialized"
  input: "global_step"
  attr {
    key: "_class"
    value {
      list {
        s: "loc:@global_step"
      }
    }
  }
  attr {
    key: "_output_shapes"
    value {
      list {
        shape {
        }
      }
    }
  }
  attr {
    key: "dtype"
    value {
      type: DT_INT64
    }
  }
}
node {
  name: "global_step/cond/Switch"
  op: "Switch"
  input: "global_step/IsVariableInitialized"
  input: "global_step/IsVariableInitialized"
  attr {
    key: "T"
    value {
      type: DT_BOOL
    }
  }
  attr {
    key: "_output_shapes"
    value {
      list {
        shape {
        }
        shape {
        }
      }
    }
  }
}
node {
  name: "global_step/cond/switch_t"
  op: "Identity"
  input: "global_step/cond/Switch:1"
  attr {
    key: "T"
    value {
      type: DT_BOOL
    }
  }
  attr {
    key: "_output_shapes"
    value {
      list {
        shape {
        }
      }
    }
  }
}
node {
  name: "global_step/cond/switch_f"
  op: "Identity"
  input: "global_step/cond/Switch"
  attr {
    key: "T"
    value {
      type: DT_BOOL
    }
  }
  attr {
    key: "_output_shapes"
    value {
      list {
        shape {
        }
      }
    }
  }
}
node {
  name: "global_step/cond/pred_id"
  op: "Identity"
  input: "global_step/IsVariableInitialized"
  attr {
    key: "T"
    value {
      type: DT_BOOL
    }
  }
  attr {
    key: "_output_shapes"
    value {
      list {
        shape {
        }
      }
    }
  }
}
node {
  name: "global_step/cond/read"
  op: "Identity"
  input: "global_step/cond/read/Switch:1"
  attr {
    key: "T"
    value {
      type: DT_INT64
    }
  }
  attr {
    key: "_output_shapes"
    value {
      list {
        shape {
        }
      }
    }
  }
}
node {
  name: "global_step/cond/read/Switch"
  op: "RefSwitch"
  input: "global_step"
  input: "global_step/cond/pred_id"
  attr {
    key: "T"
    value {
      type: DT_INT64
    }
  }
  attr {
    key: "_class"
    value {
      list {
        s: "loc:@global_step"
      }
    }
  }
  attr {
    key: "_output_shapes"
    value {
      list {
        shape {
        }
        shape {
        }
      }
    }
  }
}
node {
  name: "global_step/cond/Switch_1"
  op: "Switch"
  input: "global_step/Initializer/zeros"
  input: "global_step/cond/pred_id"
  attr {
    key: "T"
    value {
      type: DT_INT64
    }
  }
  attr {
    key: "_class"
    value {
      list {
        s: "loc:@global_step"
      }
    }
  }
  attr {
    key: "_output_shapes"
    value {
      list {
        shape {
        }
        shape {
        }
      }
    }
  }
}
node {
  name: "global_step/cond/Merge"
  op: "Merge"
  input: "global_step/cond/Switch_1"
  input: "global_step/cond/read"
  attr {
    key: "N"
    value {
      i: 2
    }
  }
  attr {
    key: "T"
    value {
      type: DT_INT64
    }
  }
  attr {
    key: "_output_shapes"
    value {
      list {
        shape {
        }
        shape {
        }
      }
    }
  }
}
node {
  name: "global_step/add/y"
  op: "Const"
  attr {
    key: "_output_shapes"
    value {
      list {
        shape {
        }
      }
    }
  }
  attr {
    key: "dtype"
    value {
      type: DT_INT64
    }
  }
  attr {
    key: "value"
    value {
      tensor {
        dtype: DT_INT64
        tensor_shape {
        }
        int64_val: 0
      }
    }
  }
}
node {
  name: "global_step/add"
  op: "Add"
  input: "global_step/cond/Merge"
  input: "global_step/add/y"
  attr {
    key: "T"
    value {
      type: DT_INT64
    }
  }
  attr {
    key: "_output_shapes"
    value {
      list {
        shape {
        }
      }
    }
  }
}
node {
  name: "tensors/component_0"
  op: "Const"
  device: "/device:CPU:0"
  attr {
    key: "_output_shapes"
    value {
      list {
        shape {
          dim {
            size: 998
          }
        }
      }
    }
  }
  attr {
    key: "dtype"
    value {
      type: DT_STRING
    }
  }
  attr {
    key: "value"
    value {
      tensor {
        dtype: DT_STRING
        tensor_shape {
          dim {
            size: 998
          }
        }
        string_val: "185.104.187.66"
        string_val: "184.3.91.65"
        string_val: "159.203.92.77"
        string_val: "184.3.91.65"
        string_val: "184.3.91.65"
        string_val: "184.3.91.65"
        string_val: "184.3.91.65"
        string_val: "184.3.91.65"
        string_val: "184.3.91.65"
        string_val: "184.3.91.65"
        string_val: "184.3.91.65"
        string_val: "184.3.91.65"
        string_val: "184.3.91.65"
        string_val: "184.3.91.65"
        string_val: "184.3.91.65"
        string_val: "184.3.91.65"
        string_val: "184.3.91.65"
        string_val: "184.3.91.65"
        string_val: "184.3.91.65"
        string_val: "184.3.91.65"
        string_val: "184.3.91.65"
        string_val: "184.3.91.65"
        string_val: "184.3.91.65"
        string_val: "184.3.91.65"
        string_val: "184.3.91.65"
        string_val: "184.3.91.65"
        string_val: "184.3.91.65"
        string_val: "184.3.91.65"
        string_val: "184.3.91.65"
        string_val: "184.3.91.65"
        string_val: "107.170.186.79"
        string_val: "184.3.91.65"
        string_val: "184.3.91.65"
        string_val: "184.3.91.65"
        string_val: "184.3.91.65"
        string_val: "184.3.91.65"
        string_val: "184.3.91.65"
        string_val: "184.3.91.65"
        string_val: "184.3.91.65"
        string_val: "184.3.91.65"
        string_val: "184.3.91.65"
        string_val: "184.3.91.65"
        string_val: "184.3.91.65"
        string_val: "184.3.91.65"
        string_val: "184.3.91.65"
        string_val: "184.3.91.65"
        string_val: "184.3.91.65"
        string_val: "184.3.91.65"
        string_val: "184.3.91.65"
        string_val: "184.3.91.65"
        string_val: "184.3.91.65"
        string_val: "184.3.91.65"
        string_val: "184.3.91.65"
        string_val: "184.3.91.65"
        string_val: "184.3.91.65"
        string_val: "184.3.91.65"
        string_val: "184.3.91.65"
        string_val: "184.3.91.65"
        string_val: "184.3.91.65"
        string_val: "184.3.91.65"
        string_val: "184.3.91.65"
        string_val: "184.3.91.65"
        string_val: "184.3.91.65"
        string_val: "184.3.91.65"
        string_val: "184.3.91.65"
        string_val: "184.3.91.65"
        string_val: "184.3.91.65"
        string_val: "184.3.91.65"
        string_val: "184.3.91.65"
        string_val: "184.3.91.65"
        string_val: "184.3.91.65"
        string_val: "184.3.91.65"
        string_val: "184.3.91.65"
        string_val: "184.3.91.65"
        string_val: "184.3.91.65"
        string_val: "184.3.91.65"
        string_val: "184.3.91.65"
        string_val: "184.3.91.65"
        string_val: "184.3.91.65"
        string_val: "184.3.91.65"
        string_val: "184.3.91.65"
        string_val: "184.3.91.65"
        string_val: "184.3.91.65"
        string_val: "184.3.91.65"
        string_val: "184.3.91.65"
        string_val: "184.3.91.65"
        string_val: "184.3.91.65"
        string_val: "184.3.91.65"
        string_val: "184.3.91.65"
        string_val: "184.3.91.65"
        string_val: "184.3.91.65"
        string_val: "184.3.91.65"
        string_val: "184.3.91.65"
        string_val: "184.3.91.65"
        string_val: "184.3.91.65"
        string_val: "184.3.91.65"
        string_val: "184.3.91.65"
        string_val: "184.3.91.65"
        string_val: "184.3.91.65"
        string_val: "184.3.91.65"
        string_val: "184.3.91.65"
        string_val: "184.3.91.65"
        string_val: "184.3.91.65"
        string_val: "184.3.91.65"
        string_val: "184.3.91.65"
        string_val: "184.3.91.65"
        string_val: "184.3.91.65"
        string_val: "184.3.91.65"
        string_val: "184.3.91.65"
        string_val: "184.3.91.65"
        string_val: "184.3.91.65"
        string_val: "184.3.91.65"
        string_val: "184.3.91.65"
        string_val: "184.3.91.65"
        string_val: "184.3.91.65"
        string_val: "184.3.91.65"
        string_val: "184.3.91.65"
        string_val: "184.3.91.65"
        string_val: "184.3.91.65"
        string_val: "184.3.91.65"
        string_val: "184.3.91.65"
        string_val: "184.3.91.65"
        string_val: "184.3.91.65"
        string_val: "184.3.91.65"
        string_val: "184.3.91.65"
        string_val: "184.3.91.65"
        string_val: "184.3.91.65"
        string_val: "184.3.91.65"
        string_val: "184.3.91.65"
        string_val: "184.3.91.65"
        string_val: "184.3.91.65"
        string_val: "184.3.91.65"
        string_val: "184.3.91.65"
        string_val: "184.3.91.65"
        string_val: "184.3.91.65"
        string_val: "184.3.91.65"
        string_val: "184.3.91.65"
        string_val: "184.3.91.65"
        string_val: "184.3.91.65"
        string_val: "184.3.91.65"
        string_val: "184.3.91.65"
        string_val: "184.3.91.65"
        string_val: "184.3.91.65"
        string_val: "184.3.91.65"
        string_val: "184.3.91.65"
        string_val: "184.3.91.65"
        string_val: "184.3.91.65"
        string_val: "184.3.91.65"
        string_val: "184.3.91.65"
        string_val: "182.190.52.112"
        string_val: "182.190.52.112"
        string_val: "182.190.52.112"
        string_val: "182.190.52.112"
        string_val: "182.190.52.112"
        string_val: "182.190.52.112"
        string_val: "182.190.52.112"
        string_val: "182.190.52.112"
        string_val: "182.190.52.112"
        string_val: "182.190.52.112"
        string_val: "182.190.52.112"
        string_val: "182.190.52.112"
        string_val: "182.190.52.112"
        string_val: "182.190.52.112"
        string_val: "182.190.52.112"
        string_val: "182.190.52.112"
        string_val: "182.190.52.112"
        string_val: "182.190.52.112"
        string_val: "182.190.52.112"
        string_val: "182.190.52.112"
        string_val: "182.190.52.112"
        string_val: "182.190.52.112"
        string_val: "182.190.52.112"
        string_val: "182.190.52.112"
        string_val: "182.190.52.112"
        string_val: "182.190.52.112"
        string_val: "182.190.52.112"
        string_val: "182.190.52.112"
        string_val: "182.190.52.112"
        string_val: "182.190.52.112"
        string_val: "182.190.52.112"
        string_val: "182.190.52.112"
        string_val: "182.190.52.112"
        string_val: "182.190.52.112"
        string_val: "182.190.52.112"
        string_val: "182.190.52.112"
        string_val: "182.190.52.112"
        string_val: "182.190.52.112"
        string_val: "182.190.52.112"
        string_val: "182.190.52.112"
        string_val: "182.190.52.112"
        string_val: "182.190.52.112"
        string_val: "182.190.52.112"
        string_val: "182.190.52.112"
        string_val: "182.190.52.112"
        string_val: "182.190.52.112"
        string_val: "182.190.52.112"
        string_val: "182.190.52.112"
        string_val: "182.190.52.112"
        string_val: "182.190.52.112"
        string_val: "182.190.52.112"
        string_val: "182.190.52.112"
        string_val: "182.190.52.112"
        string_val: "182.190.52.112"
        string_val: "182.190.52.112"
        string_val: "182.190.52.112"
        string_val: "182.190.52.112"
        string_val: "182.190.52.112"
        string_val: "182.190.52.112"
        string_val: "182.190.52.112"
        string_val: "182.190.52.112"
        string_val: "182.190.52.112"
        string_val: "182.190.52.112"
        string_val: "182.190.52.112"
        string_val: "182.190.52.112"
        string_val: "182.190.52.112"
        string_val: "182.190.52.112"
        string_val: "182.190.52.112"
        string_val: "182.190.52.112"
        string_val: "182.190.52.112"
        string_val: "182.190.52.112"
        string_val: "182.190.52.112"
        string_val: "182.190.52.112"
        string_val: "182.190.52.112"
        string_val: "182.190.52.112"
        string_val: "182.190.52.112"
        string_val: "182.190.52.112"
        string_val: "182.190.52.112"
        string_val: "182.190.52.112"
        string_val: "182.190.52.112"
        string_val: "182.190.52.112"
        string_val: "182.190.52.112"
        string_val: "182.190.52.112"
        string_val: "182.190.52.112"
        string_val: "182.190.52.112"
        string_val: "182.190.52.112"
        string_val: "182.190.52.112"
        string_val: "182.190.52.112"
        string_val: "182.190.52.112"
        string_val: "182.190.52.112"
        string_val: "182.190.52.112"
        string_val: "182.190.52.112"
        string_val: "182.190.52.112"
        string_val: "182.190.52.112"
        string_val: "182.190.52.112"
        string_val: "182.190.52.112"
        string_val: "182.190.52.112"
        string_val: "182.190.52.112"
        string_val: "182.190.52.112"
        string_val: "182.190.52.112"
        string_val: "182.190.52.112"
        string_val: "182.190.52.112"
        string_val: "182.190.52.112"
        string_val: "182.190.52.112"
        string_val: "182.190.52.112"
        string_val: "182.190.52.112"
        string_val: "182.190.52.112"
        string_val: "182.190.52.112"
        string_val: "182.190.52.112"
        string_val: "182.190.52.112"
        string_val: "182.190.52.112"
        string_val: "182.190.52.112"
        string_val: "182.190.52.112"
        string_val: "182.190.52.112"
        string_val: "182.190.52.112"
        string_val: "182.190.52.112"
        string_val: "182.190.52.112"
        string_val: "182.190.52.112"
        string_val: "182.190.52.112"
        string_val: "182.190.52.112"
        string_val: "182.190.52.112"
        string_val: "182.190.52.112"
        string_val: "182.190.52.112"
        string_val: "182.190.52.112"
        string_val: "182.190.52.112"
        string_val: "182.190.52.112"
        string_val: "182.190.52.112"
        string_val: "182.190.52.112"
        string_val: "182.190.52.112"
        string_val: "182.190.52.112"
        string_val: "182.190.52.112"
        string_val: "182.190.52.112"
        string_val: "182.190.52.112"
        string_val: "182.190.52.112"
        string_val: "182.190.52.112"
        string_val: "182.190.52.112"
        string_val: "182.190.52.112"
        string_val: "182.190.52.112"
        string_val: "182.190.52.112"
        string_val: "182.190.52.112"
        string_val: "182.190.52.112"
        string_val: "182.190.52.112"
        string_val: "182.190.52.112"
        string_val: "182.190.52.112"
        string_val: "182.190.52.112"
        string_val: "182.190.52.112"
        string_val: "182.190.52.112"
        string_val: "182.190.52.112"
        string_val: "182.190.52.112"
        string_val: "182.190.52.112"
        string_val: "182.190.52.112"
        string_val: "182.190.52.112"
        string_val: "182.190.52.112"
        string_val: "182.190.52.112"
        string_val: "182.190.52.112"
        string_val: "182.190.52.112"
        string_val: "182.190.52.112"
        string_val: "182.190.52.112"
        string_val: "182.190.52.112"
        string_val: "182.190.52.112"
        string_val: "182.190.52.112"
        string_val: "182.190.52.112"
        string_val: "182.190.52.112"
        string_val: "182.190.52.112"
        string_val: "182.190.52.112"
        string_val: "182.190.52.112"
        string_val: "182.190.52.112"
        string_val: "182.190.52.112"
        string_val: "182.190.52.112"
        string_val: "182.190.52.112"
        string_val: "182.190.52.112"
        string_val: "182.190.52.112"
        string_val: "182.190.52.112"
        string_val: "182.190.52.112"
        string_val: "182.190.52.112"
        string_val: "182.190.52.112"
        string_val: "182.190.52.112"
        string_val: "182.190.52.112"
        string_val: "182.190.52.112"
        string_val: "182.190.52.112"
        string_val: "182.190.52.112"
        string_val: "182.190.52.112"
        string_val: "182.190.52.112"
        string_val: "182.190.52.112"
        string_val: "182.190.52.112"
        string_val: "182.190.52.112"
        string_val: "182.190.52.112"
        string_val: "182.190.52.112"
        string_val: "182.190.52.112"
        string_val: "182.190.52.112"
        string_val: "182.190.52.112"
        string_val: "182.190.52.112"
        string_val: "182.190.52.112"
        string_val: "182.190.52.112"
        string_val: "182.190.52.112"
        string_val: "182.190.52.112"
        string_val: "182.190.52.112"
        string_val: "182.190.52.112"
        string_val: "182.190.52.112"
        string_val: "182.190.52.112"
        string_val: "182.190.52.112"
        string_val: "182.190.52.112"
        string_val: "182.190.52.112"
        string_val: "182.190.52.112"
        string_val: "182.190.52.112"
        string_val: "182.190.52.112"
        string_val: "182.190.52.112"
        string_val: "182.190.52.112"
        string_val: "182.190.52.112"
        string_val: "182.190.52.112"
        string_val: "182.190.52.112"
        string_val: "182.190.52.112"
        string_val: "182.190.52.112"
        string_val: "182.190.52.112"
        string_val: "182.190.52.112"
        string_val: "182.190.52.112"
        string_val: "182.190.52.112"
        string_val: "182.190.52.112"
        string_val: "182.190.52.112"
        string_val: "182.190.52.112"
        string_val: "182.190.52.112"
        string_val: "182.190.52.112"
        string_val: "182.190.52.112"
        string_val: "182.190.52.112"
        string_val: "182.190.52.112"
        string_val: "182.190.52.112"
        string_val: "182.190.52.112"
        string_val: "182.190.52.112"
        string_val: "182.190.52.112"
        string_val: "182.190.52.112"
        string_val: "182.190.52.112"
        string_val: "182.190.52.112"
        string_val: "182.190.52.112"
        string_val: "182.190.52.112"
        string_val: "182.190.52.112"
        string_val: "182.190.52.112"
        string_val: "182.190.52.112"
        string_val: "182.190.52.112"
        string_val: "182.190.52.112"
        string_val: "182.190.52.112"
        string_val: "182.190.52.112"
        string_val: "182.190.52.112"
        string_val: "182.190.52.112"
        string_val: "182.190.52.112"
        string_val: "182.190.52.112"
        string_val: "182.190.52.112"
        string_val: "182.190.52.112"
        string_val: "182.190.52.112"
        string_val: "182.190.52.112"
        string_val: "182.190.52.112"
        string_val: "182.190.52.112"
        string_val: "182.190.52.112"
        string_val: "182.190.52.112"
        string_val: "182.190.52.112"
        string_val: "182.190.52.112"
        string_val: "182.190.52.112"
        string_val: "182.190.52.112"
        string_val: "182.190.52.112"
        string_val: "182.190.52.112"
        string_val: "182.190.52.112"
        string_val: "182.190.52.112"
        string_val: "182.190.52.112"
        string_val: "182.190.52.112"
        string_val: "182.190.52.112"
        string_val: "182.190.52.112"
        string_val: "182.190.52.112"
        string_val: "182.190.52.112"
        string_val: "182.190.52.112"
        string_val: "182.190.52.112"
        string_val: "182.190.52.112"
        string_val: "182.190.52.112"
        string_val: "182.190.52.112"
        string_val: "182.190.52.112"
        string_val: "182.190.52.112"
        string_val: "182.190.52.112"
        string_val: "182.190.52.112"
        string_val: "182.190.52.112"
        string_val: "182.190.52.112"
        string_val: "182.190.52.112"
        string_val: "182.190.52.112"
        string_val: "182.190.52.112"
        string_val: "182.190.52.112"
        string_val: "182.190.52.112"
        string_val: "182.190.52.112"
        string_val: "182.190.52.112"
        string_val: "182.190.52.112"
        string_val: "182.190.52.112"
        string_val: "182.190.52.112"
        string_val: "182.190.52.112"
        string_val: "182.190.52.112"
        string_val: "182.190.52.112"
        string_val: "182.190.52.112"
        string_val: "182.190.52.112"
        string_val: "182.190.52.112"
        string_val: "182.190.52.112"
        string_val: "182.190.52.112"
        string_val: "182.190.52.112"
        string_val: "182.190.52.112"
        string_val: "182.190.52.112"
        string_val: "182.190.52.112"
        string_val: "182.190.52.112"
        string_val: "182.190.52.112"
        string_val: "182.190.52.112"
        string_val: "182.190.52.112"
        string_val: "182.190.52.112"
        string_val: "182.190.52.112"
        string_val: "182.190.52.112"
        string_val: "182.190.52.112"
        string_val: "182.190.52.112"
        string_val: "182.190.52.112"
        string_val: "182.190.52.112"
        string_val: "182.190.52.112"
        string_val: "182.190.52.112"
        string_val: "182.190.52.112"
        string_val: "182.190.52.112"
        string_val: "182.190.52.112"
        string_val: "182.190.52.112"
        string_val: "182.190.52.112"
        string_val: "182.190.52.112"
        string_val: "182.190.52.112"
        string_val: "182.190.52.112"
        string_val: "182.190.52.112"
        string_val: "182.190.52.112"
        string_val: "182.190.52.112"
        string_val: "182.190.52.112"
        string_val: "182.190.52.112"
        string_val: "182.190.52.112"
        string_val: "182.190.52.112"
        string_val: "182.190.52.112"
        string_val: "182.190.52.112"
        string_val: "182.190.52.112"
        string_val: "182.190.52.112"
        string_val: "182.190.52.112"
        string_val: "182.190.52.112"
        string_val: "182.190.52.112"
        string_val: "182.190.52.112"
        string_val: "182.190.52.112"
        string_val: "182.190.52.112"
        string_val: "182.190.52.112"
        string_val: "182.190.52.112"
        string_val: "182.190.52.112"
        string_val: "182.190.52.112"
        string_val: "182.190.52.112"
        string_val: "182.190.52.112"
        string_val: "182.190.52.112"
        string_val: "182.190.52.112"
        string_val: "182.190.52.112"
        string_val: "182.190.52.112"
        string_val: "182.190.52.112"
        string_val: "182.190.52.112"
        string_val: "182.190.52.112"
        string_val: "182.190.52.112"
        string_val: "182.190.52.112"
        string_val: "182.190.52.112"
        string_val: "182.190.52.112"
        string_val: "182.190.52.112"
        string_val: "182.190.52.112"
        string_val: "182.190.52.112"
        string_val: "182.190.52.112"
        string_val: "182.190.52.112"
        string_val: "182.190.52.112"
        string_val: "182.190.52.112"
        string_val: "182.190.52.112"
        string_val: "182.190.52.112"
        string_val: "182.190.52.112"
        string_val: "182.190.52.112"
        string_val: "182.190.52.112"
        string_val: "182.190.52.112"
        string_val: "182.190.52.112"
        string_val: "182.190.52.112"
        string_val: "182.190.52.112"
        string_val: "182.190.52.112"
        string_val: "182.190.52.112"
        string_val: "182.190.52.112"
        string_val: "182.190.52.112"
        string_val: "182.190.52.112"
        string_val: "182.190.52.112"
        string_val: "182.190.52.112"
        string_val: "182.190.52.112"
        string_val: "182.190.52.112"
        string_val: "182.190.52.112"
        string_val: "182.190.52.112"
        string_val: "182.190.52.112"
        string_val: "182.190.52.112"
        string_val: "182.190.52.112"
        string_val: "182.190.52.112"
        string_val: "182.190.52.112"
        string_val: "182.190.52.112"
        string_val: "182.190.52.112"
        string_val: "182.190.52.112"
        string_val: "182.190.52.112"
        string_val: "182.190.52.112"
        string_val: "182.190.52.112"
        string_val: "182.190.52.112"
        string_val: "182.190.52.112"
        string_val: "182.190.52.112"
        string_val: "182.190.52.112"
        string_val: "182.190.52.112"
        string_val: "182.190.52.112"
        string_val: "182.190.52.112"
        string_val: "182.190.52.112"
        string_val: "182.190.52.112"
        string_val: "182.190.52.112"
        string_val: "182.190.52.112"
        string_val: "182.190.52.112"
        string_val: "182.190.52.112"
        string_val: "182.190.52.112"
        string_val: "182.190.52.112"
        string_val: "182.190.52.112"
        string_val: "182.190.52.112"
        string_val: "182.190.52.112"
        string_val: "182.190.52.112"
        string_val: "182.190.52.112"
        string_val: "182.190.52.112"
        string_val: "182.190.52.112"
        string_val: "182.190.52.112"
        string_val: "182.190.52.112"
        string_val: "182.190.52.112"
        string_val: "182.190.52.112"
        string_val: "182.190.52.112"
        string_val: "182.190.52.112"
        string_val: "182.190.52.112"
        string_val: "182.190.52.112"
        string_val: "182.190.52.112"
        string_val: "182.190.52.112"
        string_val: "182.190.52.112"
        string_val: "182.190.52.112"
        string_val: "182.190.52.112"
        string_val: "182.190.52.112"
        string_val: "182.190.52.112"
        string_val: "182.190.52.112"
        string_val: "182.190.52.112"
        string_val: "182.190.52.112"
        string_val: "182.190.52.112"
        string_val: "182.190.52.112"
        string_val: "182.190.52.112"
        string_val: "182.190.52.112"
        string_val: "182.190.52.112"
        string_val: "182.190.52.112"
        string_val: "182.190.52.112"
        string_val: "182.190.52.112"
        string_val: "182.190.52.112"
        string_val: "182.190.52.112"
        string_val: "182.190.52.112"
        string_val: "182.190.52.112"
        string_val: "182.190.52.112"
        string_val: "182.190.52.112"
        string_val: "182.190.52.112"
        string_val: "182.190.52.112"
        string_val: "182.190.52.112"
        string_val: "182.190.52.112"
        string_val: "182.190.52.112"
        string_val: "182.190.52.112"
        string_val: "182.190.52.112"
        string_val: "182.190.52.112"
        string_val: "182.190.52.112"
        string_val: "182.190.52.112"
        string_val: "182.190.52.112"
        string_val: "182.190.52.112"
        string_val: "182.190.52.112"
        string_val: "182.190.52.112"
        string_val: "182.190.52.112"
        string_val: "182.190.52.112"
        string_val: "182.190.52.112"
        string_val: "182.190.52.112"
        string_val: "182.190.52.112"
        string_val: "182.190.52.112"
        string_val: "182.190.52.112"
        string_val: "182.190.52.112"
        string_val: "182.190.52.112"
        string_val: "182.190.52.112"
        string_val: "182.190.52.112"
        string_val: "182.190.52.112"
        string_val: "182.190.52.112"
        string_val: "182.190.52.112"
        string_val: "182.190.52.112"
        string_val: "182.190.52.112"
        string_val: "182.190.52.112"
        string_val: "182.190.52.112"
        string_val: "182.190.52.112"
        string_val: "182.190.52.112"
        string_val: "182.190.52.112"
        string_val: "182.190.52.112"
        string_val: "182.190.52.112"
        string_val: "182.190.52.112"
        string_val: "45.55.49.75"
        string_val: "182.190.52.112"
        string_val: "182.190.52.112"
        string_val: "182.190.52.112"
        string_val: "182.190.52.112"
        string_val: "182.190.52.112"
        string_val: "182.190.52.112"
        string_val: "182.190.52.112"
        string_val: "182.190.52.112"
        string_val: "182.190.52.112"
        string_val: "182.190.52.112"
        string_val: "182.190.52.112"
        string_val: "182.190.52.112"
        string_val: "182.190.52.112"
        string_val: "182.190.52.112"
        string_val: "182.190.52.112"
        string_val: "182.190.52.112"
        string_val: "182.190.52.112"
        string_val: "182.190.52.112"
        string_val: "182.190.52.112"
        string_val: "182.190.52.112"
        string_val: "182.190.52.112"
        string_val: "182.190.52.112"
        string_val: "182.190.52.112"
        string_val: "182.190.52.112"
        string_val: "182.190.52.112"
        string_val: "182.190.52.112"
        string_val: "182.190.52.112"
        string_val: "182.190.52.112"
        string_val: "182.190.52.112"
        string_val: "182.190.52.112"
        string_val: "182.190.52.112"
        string_val: "182.190.52.112"
        string_val: "182.190.52.112"
        string_val: "182.190.52.112"
        string_val: "182.190.52.112"
        string_val: "182.190.52.112"
        string_val: "182.190.52.112"
        string_val: "182.190.52.112"
        string_val: "182.190.52.112"
        string_val: "182.190.52.112"
        string_val: "182.190.52.112"
        string_val: "182.190.52.112"
        string_val: "182.190.52.112"
        string_val: "182.190.52.112"
        string_val: "182.190.52.112"
        string_val: "182.190.52.112"
        string_val: "182.190.52.112"
        string_val: "182.190.52.112"
        string_val: "182.190.52.112"
        string_val: "182.190.52.112"
        string_val: "45.55.49.75"
        string_val: "182.190.52.112"
        string_val: "182.190.52.112"
        string_val: "182.190.52.112"
        string_val: "182.190.52.112"
        string_val: "182.190.52.112"
        string_val: "182.190.52.112"
        string_val: "182.190.52.112"
        string_val: "182.190.52.112"
        string_val: "182.190.52.112"
        string_val: "182.190.52.112"
        string_val: "182.190.52.112"
        string_val: "182.190.52.112"
        string_val: "182.190.52.112"
        string_val: "182.190.52.112"
        string_val: "182.190.52.112"
        string_val: "182.190.52.112"
        string_val: "182.190.52.112"
        string_val: "182.190.52.112"
        string_val: "182.190.52.112"
        string_val: "182.190.52.112"
        string_val: "182.190.52.112"
        string_val: "182.190.52.112"
        string_val: "182.190.52.112"
        string_val: "182.190.52.112"
        string_val: "182.190.52.112"
        string_val: "182.190.52.112"
        string_val: "182.190.52.112"
        string_val: "182.190.52.112"
        string_val: "173.252.85.26"
        string_val: "99.194.24.145"
        string_val: "5.165.240.41"
        string_val: "5.165.240.41"
        string_val: "5.165.240.41"
        string_val: "5.165.240.41"
        string_val: "5.165.240.41"
        string_val: "5.165.240.41"
        string_val: "5.165.240.41"
        string_val: "5.165.240.41"
        string_val: "5.165.240.41"
        string_val: "5.165.240.41"
        string_val: "5.165.240.41"
        string_val: "5.165.240.41"
        string_val: "5.165.240.41"
        string_val: "5.165.240.41"
        string_val: "5.165.240.41"
        string_val: "5.165.240.41"
        string_val: "5.165.240.41"
        string_val: "5.165.240.41"
        string_val: "5.165.240.41"
        string_val: "5.165.240.41"
        string_val: "5.165.240.41"
        string_val: "5.165.240.41"
        string_val: "5.165.240.41"
        string_val: "5.165.240.41"
        string_val: "5.165.240.41"
        string_val: "5.165.240.41"
        string_val: "5.165.240.41"
        string_val: "5.165.240.41"
        string_val: "5.165.240.41"
        string_val: "5.165.240.41"
        string_val: "5.165.240.41"
        string_val: "5.165.240.41"
        string_val: "5.165.240.41"
        string_val: "5.165.240.41"
        string_val: "5.165.240.41"
        string_val: "5.165.240.41"
        string_val: "5.165.240.41"
        string_val: "5.165.240.41"
        string_val: "5.165.240.41"
        string_val: "5.165.240.41"
        string_val: "5.165.240.41"
        string_val: "5.165.240.41"
        string_val: "5.165.240.41"
        string_val: "5.165.240.41"
        string_val: "5.165.240.41"
        string_val: "5.165.240.41"
        string_val: "5.165.240.41"
        string_val: "5.165.240.41"
        string_val: "5.165.240.41"
        string_val: "5.165.240.41"
        string_val: "5.165.240.41"
        string_val: "5.165.240.41"
        string_val: "5.165.240.41"
        string_val: "5.165.240.41"
        string_val: "5.165.240.41"
        string_val: "5.165.240.41"
        string_val: "5.165.240.41"
        string_val: "5.165.240.41"
        string_val: "5.165.240.41"
        string_val: "5.165.240.41"
        string_val: "5.165.240.41"
        string_val: "5.165.240.41"
        string_val: "5.165.240.41"
        string_val: "5.165.240.41"
        string_val: "5.165.240.41"
        string_val: "5.165.240.41"
        string_val: "5.165.240.41"
        string_val: "5.165.240.41"
        string_val: "5.165.240.41"
        string_val: "5.165.240.41"
        string_val: "5.165.240.41"
        string_val: "5.165.240.41"
        string_val: "5.165.240.41"
        string_val: "5.165.240.41"
        string_val: "5.165.240.41"
        string_val: "5.165.240.41"
        string_val: "5.165.240.41"
        string_val: "5.165.240.41"
        string_val: "5.165.240.41"
        string_val: "5.165.240.41"
        string_val: "5.165.240.41"
        string_val: "5.165.240.41"
        string_val: "5.165.240.41"
        string_val: "5.165.240.41"
        string_val: "61.6.121.241"
        string_val: "61.6.121.241"
        string_val: "61.6.121.241"
        string_val: "61.6.121.241"
        string_val: "61.6.121.241"
        string_val: "61.6.121.241"
        string_val: "61.6.121.241"
        string_val: "61.6.121.241"
        string_val: "61.6.121.241"
        string_val: "61.6.121.241"
        string_val: "61.6.121.241"
        string_val: "61.6.121.241"
        string_val: "61.6.121.241"
        string_val: "61.6.121.241"
        string_val: "61.6.121.241"
        string_val: "61.6.121.241"
        string_val: "61.6.121.241"
        string_val: "61.6.121.241"
        string_val: "61.6.121.241"
        string_val: "61.6.121.241"
        string_val: "61.6.121.241"
        string_val: "61.6.121.241"
        string_val: "61.6.121.241"
        string_val: "61.6.121.241"
        string_val: "61.6.121.241"
        string_val: "61.6.121.241"
        string_val: "61.6.121.241"
        string_val: "61.6.121.241"
        string_val: "61.6.121.241"
        string_val: "61.6.121.241"
        string_val: "61.6.121.241"
        string_val: "61.6.121.241"
        string_val: "61.6.121.241"
        string_val: "61.6.121.241"
        string_val: "61.6.121.241"
        string_val: "61.6.121.241"
        string_val: "61.6.121.241"
        string_val: "61.6.121.241"
        string_val: "61.6.121.241"
        string_val: "61.6.121.241"
        string_val: "61.6.121.241"
        string_val: "61.6.121.241"
        string_val: "61.6.121.241"
        string_val: "61.6.121.241"
        string_val: "61.6.121.241"
        string_val: "61.6.121.241"
        string_val: "61.6.121.241"
        string_val: "61.6.121.241"
        string_val: "61.6.121.241"
        string_val: "61.6.121.241"
        string_val: "61.6.121.241"
        string_val: "61.6.121.241"
        string_val: "61.6.121.241"
        string_val: "61.6.121.241"
        string_val: "61.6.121.241"
        string_val: "61.6.121.241"
        string_val: "61.6.121.241"
        string_val: "61.6.121.241"
        string_val: "61.6.121.241"
        string_val: "61.6.121.241"
        string_val: "61.6.121.241"
        string_val: "61.6.121.241"
        string_val: "61.6.121.241"
        string_val: "61.6.121.241"
        string_val: "61.6.121.241"
        string_val: "61.6.121.241"
        string_val: "61.6.121.241"
        string_val: "61.6.121.241"
        string_val: "61.6.121.241"
        string_val: "61.6.121.241"
        string_val: "61.6.121.241"
        string_val: "61.6.121.241"
        string_val: "61.6.121.241"
        string_val: "61.6.121.241"
        string_val: "61.6.121.241"
        string_val: "61.6.121.241"
        string_val: "61.6.121.241"
        string_val: "61.6.121.241"
        string_val: "61.6.121.241"
        string_val: "61.6.121.241"
        string_val: "92.244.219.171"
        string_val: "92.244.219.171"
        string_val: "92.244.219.171"
        string_val: "92.244.219.171"
        string_val: "92.244.219.171"
        string_val: "92.244.219.171"
        string_val: "92.244.219.171"
        string_val: "92.244.219.171"
        string_val: "92.244.219.171"
        string_val: "92.244.219.171"
        string_val: "92.244.219.171"
        string_val: "92.244.219.171"
        string_val: "92.244.219.171"
        string_val: "92.244.219.171"
        string_val: "92.244.219.171"
        string_val: "92.244.219.171"
        string_val: "92.244.219.171"
        string_val: "92.244.219.171"
        string_val: "92.244.219.171"
        string_val: "92.244.219.171"
        string_val: "92.244.219.171"
        string_val: "92.244.219.171"
        string_val: "92.244.219.171"
        string_val: "92.244.219.171"
        string_val: "92.244.219.171"
        string_val: "92.244.219.171"
        string_val: "92.244.219.171"
        string_val: "92.244.219.171"
        string_val: "92.244.219.171"
        string_val: "92.244.219.171"
        string_val: "92.244.219.171"
        string_val: "92.244.219.171"
        string_val: "92.244.219.171"
        string_val: "92.244.219.171"
        string_val: "92.244.219.171"
        string_val: "92.244.219.171"
        string_val: "92.244.219.171"
        string_val: "92.244.219.171"
        string_val: "92.244.219.171"
        string_val: "92.244.219.171"
        string_val: "92.244.219.171"
        string_val: "92.244.219.171"
        string_val: "92.244.219.171"
        string_val: "92.244.219.171"
        string_val: "92.244.219.171"
        string_val: "92.244.219.171"
        string_val: "92.244.219.171"
        string_val: "92.244.219.171"
        string_val: "92.244.219.171"
        string_val: "92.244.219.171"
        string_val: "92.244.219.171"
        string_val: "92.244.219.171"
        string_val: "92.244.219.171"
        string_val: "92.244.219.171"
        string_val: "92.244.219.171"
        string_val: "92.244.219.171"
        string_val: "92.244.219.171"
        string_val: "92.244.219.171"
        string_val: "92.244.219.171"
        string_val: "92.244.219.171"
        string_val: "92.244.219.171"
        string_val: "92.244.219.171"
        string_val: "92.244.219.171"
        string_val: "92.244.219.171"
        string_val: "92.244.219.171"
        string_val: "92.244.219.171"
        string_val: "92.244.219.171"
        string_val: "92.244.219.171"
        string_val: "92.244.219.171"
        string_val: "92.244.219.171"
        string_val: "92.244.219.171"
        string_val: "92.244.219.171"
        string_val: "92.244.219.171"
        string_val: "92.244.219.171"
        string_val: "92.244.219.171"
        string_val: "92.244.219.171"
        string_val: "92.244.219.171"
        string_val: "92.244.219.171"
        string_val: "92.244.219.171"
        string_val: "92.244.219.171"
        string_val: "92.244.219.171"
        string_val: "92.244.219.171"
        string_val: "92.244.219.171"
        string_val: "92.244.219.171"
        string_val: "92.244.219.171"
        string_val: "92.244.219.171"
        string_val: "92.244.219.171"
        string_val: "92.244.219.171"
        string_val: "104.131.130.65"
        string_val: "104.131.130.65"
        string_val: "104.131.130.65"
        string_val: "104.131.130.65"
        string_val: "104.131.130.65"
        string_val: "104.131.130.65"
        string_val: "104.131.130.65"
        string_val: "104.131.130.65"
        string_val: "104.131.130.65"
        string_val: "104.131.130.65"
        string_val: "104.131.130.65"
        string_val: "104.131.130.65"
        string_val: "104.131.130.65"
        string_val: "104.131.130.65"
        string_val: "104.131.130.65"
        string_val: "104.131.130.65"
        string_val: "104.131.130.65"
        string_val: "104.131.130.65"
        string_val: "104.131.130.65"
        string_val: "104.131.130.65"
        string_val: "104.131.130.65"
        string_val: "104.131.130.65"
        string_val: "104.131.130.65"
        string_val: "104.131.130.65"
        string_val: "104.131.130.65"
        string_val: "104.131.130.65"
        string_val: "104.131.130.65"
        string_val: "104.131.130.65"
        string_val: "104.131.130.65"
        string_val: "104.131.130.65"
      }
    }
  }
}
node {
  name: "tensors/component_1"
  op: "Const"
  device: "/device:CPU:0"
  attr {
    key: "_output_shapes"
    value {
      list {
        shape {
          dim {
            size: 998
          }
        }
      }
    }
  }
  attr {
    key: "dtype"
    value {
      type: DT_STRING
    }
  }
  attr {
    key: "value"
    value {
      tensor {
        dtype: DT_STRING
        tensor_shape {
          dim {
            size: 998
          }
        }
        string_val: "HU"
        string_val: "US"
        string_val: "US"
        string_val: "US"
        string_val: "US"
        string_val: "US"
        string_val: "US"
        string_val: "US"
        string_val: "US"
        string_val: "US"
        string_val: "US"
        string_val: "US"
        string_val: "US"
        string_val: "US"
        string_val: "US"
        string_val: "US"
        string_val: "US"
        string_val: "US"
        string_val: "US"
        string_val: "US"
        string_val: "US"
        string_val: "US"
        string_val: "US"
        string_val: "US"
        string_val: "US"
        string_val: "US"
        string_val: "US"
        string_val: "US"
        string_val: "US"
        string_val: "US"
        string_val: "US"
        string_val: "US"
        string_val: "US"
        string_val: "US"
        string_val: "US"
        string_val: "US"
        string_val: "US"
        string_val: "US"
        string_val: "US"
        string_val: "US"
        string_val: "US"
        string_val: "US"
        string_val: "US"
        string_val: "US"
        string_val: "US"
        string_val: "US"
        string_val: "US"
        string_val: "US"
        string_val: "US"
        string_val: "US"
        string_val: "US"
        string_val: "US"
        string_val: "US"
        string_val: "US"
        string_val: "US"
        string_val: "US"
        string_val: "US"
        string_val: "US"
        string_val: "US"
        string_val: "US"
        string_val: "US"
        string_val: "US"
        string_val: "US"
        string_val: "US"
        string_val: "US"
        string_val: "US"
        string_val: "US"
        string_val: "US"
        string_val: "US"
        string_val: "US"
        string_val: "US"
        string_val: "US"
        string_val: "US"
        string_val: "US"
        string_val: "US"
        string_val: "US"
        string_val: "US"
        string_val: "US"
        string_val: "US"
        string_val: "US"
        string_val: "US"
        string_val: "US"
        string_val: "US"
        string_val: "US"
        string_val: "US"
        string_val: "US"
        string_val: "US"
        string_val: "US"
        string_val: "US"
        string_val: "US"
        string_val: "US"
        string_val: "US"
        string_val: "US"
        string_val: "US"
        string_val: "US"
        string_val: "US"
        string_val: "US"
        string_val: "US"
        string_val: "US"
        string_val: "US"
        string_val: "US"
        string_val: "US"
        string_val: "US"
        string_val: "US"
        string_val: "US"
        string_val: "US"
        string_val: "US"
        string_val: "US"
        string_val: "US"
        string_val: "US"
        string_val: "US"
        string_val: "US"
        string_val: "US"
        string_val: "US"
        string_val: "US"
        string_val: "US"
        string_val: "US"
        string_val: "US"
        string_val: "US"
        string_val: "US"
        string_val: "US"
        string_val: "US"
        string_val: "US"
        string_val: "US"
        string_val: "US"
        string_val: "US"
        string_val: "US"
        string_val: "US"
        string_val: "US"
        string_val: "US"
        string_val: "US"
        string_val: "US"
        string_val: "US"
        string_val: "US"
        string_val: "US"
        string_val: "US"
        string_val: "US"
        string_val: "US"
        string_val: "US"
        string_val: "US"
        string_val: "US"
        string_val: "US"
        string_val: "US"
        string_val: "US"
        string_val: "US"
        string_val: "US"
        string_val: "US"
        string_val: "US"
        string_val: "US"
        string_val: "PK"
        string_val: "PK"
        string_val: "PK"
        string_val: "PK"
        string_val: "PK"
        string_val: "PK"
        string_val: "PK"
        string_val: "PK"
        string_val: "PK"
        string_val: "PK"
        string_val: "PK"
        string_val: "PK"
        string_val: "PK"
        string_val: "PK"
        string_val: "PK"
        string_val: "PK"
        string_val: "PK"
        string_val: "PK"
        string_val: "PK"
        string_val: "PK"
        string_val: "PK"
        string_val: "PK"
        string_val: "PK"
        string_val: "PK"
        string_val: "PK"
        string_val: "PK"
        string_val: "PK"
        string_val: "PK"
        string_val: "PK"
        string_val: "PK"
        string_val: "PK"
        string_val: "PK"
        string_val: "PK"
        string_val: "PK"
        string_val: "PK"
        string_val: "PK"
        string_val: "PK"
        string_val: "PK"
        string_val: "PK"
        string_val: "PK"
        string_val: "PK"
        string_val: "PK"
        string_val: "PK"
        string_val: "PK"
        string_val: "PK"
        string_val: "PK"
        string_val: "PK"
        string_val: "PK"
        string_val: "PK"
        string_val: "PK"
        string_val: "PK"
        string_val: "PK"
        string_val: "PK"
        string_val: "PK"
        string_val: "PK"
        string_val: "PK"
        string_val: "PK"
        string_val: "PK"
        string_val: "PK"
        string_val: "PK"
        string_val: "PK"
        string_val: "PK"
        string_val: "PK"
        string_val: "PK"
        string_val: "PK"
        string_val: "PK"
        string_val: "PK"
        string_val: "PK"
        string_val: "PK"
        string_val: "PK"
        string_val: "PK"
        string_val: "PK"
        string_val: "PK"
        string_val: "PK"
        string_val: "PK"
        string_val: "PK"
        string_val: "PK"
        string_val: "PK"
        string_val: "PK"
        string_val: "PK"
        string_val: "PK"
        string_val: "PK"
        string_val: "PK"
        string_val: "PK"
        string_val: "PK"
        string_val: "PK"
        string_val: "PK"
        string_val: "PK"
        string_val: "PK"
        string_val: "PK"
        string_val: "PK"
        string_val: "PK"
        string_val: "PK"
        string_val: "PK"
        string_val: "PK"
        string_val: "PK"
        string_val: "PK"
        string_val: "PK"
        string_val: "PK"
        string_val: "PK"
        string_val: "PK"
        string_val: "PK"
        string_val: "PK"
        string_val: "PK"
        string_val: "PK"
        string_val: "PK"
        string_val: "PK"
        string_val: "PK"
        string_val: "PK"
        string_val: "PK"
        string_val: "PK"
        string_val: "PK"
        string_val: "PK"
        string_val: "PK"
        string_val: "PK"
        string_val: "PK"
        string_val: "PK"
        string_val: "PK"
        string_val: "PK"
        string_val: "PK"
        string_val: "PK"
        string_val: "PK"
        string_val: "PK"
        string_val: "PK"
        string_val: "PK"
        string_val: "PK"
        string_val: "PK"
        string_val: "PK"
        string_val: "PK"
        string_val: "PK"
        string_val: "PK"
        string_val: "PK"
        string_val: "PK"
        string_val: "PK"
        string_val: "PK"
        string_val: "PK"
        string_val: "PK"
        string_val: "PK"
        string_val: "PK"
        string_val: "PK"
        string_val: "PK"
        string_val: "PK"
        string_val: "PK"
        string_val: "PK"
        string_val: "PK"
        string_val: "PK"
        string_val: "PK"
        string_val: "PK"
        string_val: "PK"
        string_val: "PK"
        string_val: "PK"
        string_val: "PK"
        string_val: "PK"
        string_val: "PK"
        string_val: "PK"
        string_val: "PK"
        string_val: "PK"
        string_val: "PK"
        string_val: "PK"
        string_val: "PK"
        string_val: "PK"
        string_val: "PK"
        string_val: "PK"
        string_val: "PK"
        string_val: "PK"
        string_val: "PK"
        string_val: "PK"
        string_val: "PK"
        string_val: "PK"
        string_val: "PK"
        string_val: "PK"
        string_val: "PK"
        string_val: "PK"
        string_val: "PK"
        string_val: "PK"
        string_val: "PK"
        string_val: "PK"
        string_val: "PK"
        string_val: "PK"
        string_val: "PK"
        string_val: "PK"
        string_val: "PK"
        string_val: "PK"
        string_val: "PK"
        string_val: "PK"
        string_val: "PK"
        string_val: "PK"
        string_val: "PK"
        string_val: "PK"
        string_val: "PK"
        string_val: "PK"
        string_val: "PK"
        string_val: "PK"
        string_val: "PK"
        string_val: "PK"
        string_val: "PK"
        string_val: "PK"
        string_val: "PK"
        string_val: "PK"
        string_val: "PK"
        string_val: "PK"
        string_val: "PK"
        string_val: "PK"
        string_val: "PK"
        string_val: "PK"
        string_val: "PK"
        string_val: "PK"
        string_val: "PK"
        string_val: "PK"
        string_val: "PK"
        string_val: "PK"
        string_val: "PK"
        string_val: "PK"
        string_val: "PK"
        string_val: "PK"
        string_val: "PK"
        string_val: "PK"
        string_val: "PK"
        string_val: "PK"
        string_val: "PK"
        string_val: "PK"
        string_val: "PK"
        string_val: "PK"
        string_val: "PK"
        string_val: "PK"
        string_val: "PK"
        string_val: "PK"
        string_val: "PK"
        string_val: "PK"
        string_val: "PK"
        string_val: "PK"
        string_val: "PK"
        string_val: "PK"
        string_val: "PK"
        string_val: "PK"
        string_val: "PK"
        string_val: "PK"
        string_val: "PK"
        string_val: "PK"
        string_val: "PK"
        string_val: "PK"
        string_val: "PK"
        string_val: "PK"
        string_val: "PK"
        string_val: "PK"
        string_val: "PK"
        string_val: "PK"
        string_val: "PK"
        string_val: "PK"
        string_val: "PK"
        string_val: "PK"
        string_val: "PK"
        string_val: "PK"
        string_val: "PK"
        string_val: "PK"
        string_val: "PK"
        string_val: "PK"
        string_val: "PK"
        string_val: "PK"
        string_val: "PK"
        string_val: "PK"
        string_val: "PK"
        string_val: "PK"
        string_val: "PK"
        string_val: "PK"
        string_val: "PK"
        string_val: "PK"
        string_val: "PK"
        string_val: "PK"
        string_val: "PK"
        string_val: "PK"
        string_val: "PK"
        string_val: "PK"
        string_val: "PK"
        string_val: "PK"
        string_val: "PK"
        string_val: "PK"
        string_val: "PK"
        string_val: "PK"
        string_val: "PK"
        string_val: "PK"
        string_val: "PK"
        string_val: "PK"
        string_val: "PK"
        string_val: "PK"
        string_val: "PK"
        string_val: "PK"
        string_val: "PK"
        string_val: "PK"
        string_val: "PK"
        string_val: "PK"
        string_val: "PK"
        string_val: "PK"
        string_val: "PK"
        string_val: "PK"
        string_val: "PK"
        string_val: "PK"
        string_val: "PK"
        string_val: "PK"
        string_val: "PK"
        string_val: "PK"
        string_val: "PK"
        string_val: "PK"
        string_val: "PK"
        string_val: "PK"
        string_val: "PK"
        string_val: "PK"
        string_val: "PK"
        string_val: "PK"
        string_val: "PK"
        string_val: "PK"
        string_val: "PK"
        string_val: "PK"
        string_val: "PK"
        string_val: "PK"
        string_val: "PK"
        string_val: "PK"
        string_val: "PK"
        string_val: "PK"
        string_val: "PK"
        string_val: "PK"
        string_val: "PK"
        string_val: "PK"
        string_val: "PK"
        string_val: "PK"
        string_val: "PK"
        string_val: "PK"
        string_val: "PK"
        string_val: "PK"
        string_val: "PK"
        string_val: "PK"
        string_val: "PK"
        string_val: "PK"
        string_val: "PK"
        string_val: "PK"
        string_val: "PK"
        string_val: "PK"
        string_val: "PK"
        string_val: "PK"
        string_val: "PK"
        string_val: "PK"
        string_val: "PK"
        string_val: "PK"
        string_val: "PK"
        string_val: "PK"
        string_val: "PK"
        string_val: "PK"
        string_val: "PK"
        string_val: "PK"
        string_val: "PK"
        string_val: "PK"
        string_val: "PK"
        string_val: "PK"
        string_val: "PK"
        string_val: "PK"
        string_val: "PK"
        string_val: "PK"
        string_val: "PK"
        string_val: "PK"
        string_val: "PK"
        string_val: "PK"
        string_val: "PK"
        string_val: "PK"
        string_val: "PK"
        string_val: "PK"
        string_val: "PK"
        string_val: "PK"
        string_val: "PK"
        string_val: "PK"
        string_val: "PK"
        string_val: "PK"
        string_val: "PK"
        string_val: "PK"
        string_val: "PK"
        string_val: "PK"
        string_val: "PK"
        string_val: "PK"
        string_val: "PK"
        string_val: "PK"
        string_val: "PK"
        string_val: "PK"
        string_val: "PK"
        string_val: "PK"
        string_val: "PK"
        string_val: "PK"
        string_val: "PK"
        string_val: "PK"
        string_val: "PK"
        string_val: "PK"
        string_val: "PK"
        string_val: "PK"
        string_val: "PK"
        string_val: "PK"
        string_val: "PK"
        string_val: "PK"
        string_val: "PK"
        string_val: "PK"
        string_val: "PK"
        string_val: "PK"
        string_val: "PK"
        string_val: "PK"
        string_val: "PK"
        string_val: "PK"
        string_val: "PK"
        string_val: "PK"
        string_val: "PK"
        string_val: "PK"
        string_val: "PK"
        string_val: "PK"
        string_val: "PK"
        string_val: "PK"
        string_val: "PK"
        string_val: "PK"
        string_val: "PK"
        string_val: "PK"
        string_val: "PK"
        string_val: "PK"
        string_val: "PK"
        string_val: "PK"
        string_val: "PK"
        string_val: "PK"
        string_val: "PK"
        string_val: "PK"
        string_val: "PK"
        string_val: "PK"
        string_val: "PK"
        string_val: "PK"
        string_val: "PK"
        string_val: "PK"
        string_val: "PK"
        string_val: "PK"
        string_val: "PK"
        string_val: "PK"
        string_val: "PK"
        string_val: "PK"
        string_val: "PK"
        string_val: "PK"
        string_val: "PK"
        string_val: "PK"
        string_val: "PK"
        string_val: "PK"
        string_val: "PK"
        string_val: "PK"
        string_val: "PK"
        string_val: "PK"
        string_val: "PK"
        string_val: "PK"
        string_val: "PK"
        string_val: "PK"
        string_val: "PK"
        string_val: "PK"
        string_val: "PK"
        string_val: "PK"
        string_val: "PK"
        string_val: "PK"
        string_val: "PK"
        string_val: "PK"
        string_val: "PK"
        string_val: "PK"
        string_val: "PK"
        string_val: "PK"
        string_val: "PK"
        string_val: "PK"
        string_val: "PK"
        string_val: "PK"
        string_val: "PK"
        string_val: "PK"
        string_val: "PK"
        string_val: "PK"
        string_val: "PK"
        string_val: "PK"
        string_val: "PK"
        string_val: "PK"
        string_val: "PK"
        string_val: "PK"
        string_val: "PK"
        string_val: "PK"
        string_val: "PK"
        string_val: "PK"
        string_val: "PK"
        string_val: "PK"
        string_val: "PK"
        string_val: "PK"
        string_val: "PK"
        string_val: "PK"
        string_val: "US"
        string_val: "PK"
        string_val: "PK"
        string_val: "PK"
        string_val: "PK"
        string_val: "PK"
        string_val: "PK"
        string_val: "PK"
        string_val: "PK"
        string_val: "PK"
        string_val: "PK"
        string_val: "PK"
        string_val: "PK"
        string_val: "PK"
        string_val: "PK"
        string_val: "PK"
        string_val: "PK"
        string_val: "PK"
        string_val: "PK"
        string_val: "PK"
        string_val: "PK"
        string_val: "PK"
        string_val: "PK"
        string_val: "PK"
        string_val: "PK"
        string_val: "PK"
        string_val: "PK"
        string_val: "PK"
        string_val: "PK"
        string_val: "PK"
        string_val: "PK"
        string_val: "PK"
        string_val: "PK"
        string_val: "PK"
        string_val: "PK"
        string_val: "PK"
        string_val: "PK"
        string_val: "PK"
        string_val: "PK"
        string_val: "PK"
        string_val: "PK"
        string_val: "PK"
        string_val: "PK"
        string_val: "PK"
        string_val: "PK"
        string_val: "PK"
        string_val: "PK"
        string_val: "PK"
        string_val: "PK"
        string_val: "PK"
        string_val: "PK"
        string_val: "US"
        string_val: "PK"
        string_val: "PK"
        string_val: "PK"
        string_val: "PK"
        string_val: "PK"
        string_val: "PK"
        string_val: "PK"
        string_val: "PK"
        string_val: "PK"
        string_val: "PK"
        string_val: "PK"
        string_val: "PK"
        string_val: "PK"
        string_val: "PK"
        string_val: "PK"
        string_val: "PK"
        string_val: "PK"
        string_val: "PK"
        string_val: "PK"
        string_val: "PK"
        string_val: "PK"
        string_val: "PK"
        string_val: "PK"
        string_val: "PK"
        string_val: "PK"
        string_val: "PK"
        string_val: "PK"
        string_val: "PK"
        string_val: "US"
        string_val: "US"
        string_val: "RU"
        string_val: "RU"
        string_val: "RU"
        string_val: "RU"
        string_val: "RU"
        string_val: "RU"
        string_val: "RU"
        string_val: "RU"
        string_val: "RU"
        string_val: "RU"
        string_val: "RU"
        string_val: "RU"
        string_val: "RU"
        string_val: "RU"
        string_val: "RU"
        string_val: "RU"
        string_val: "RU"
        string_val: "RU"
        string_val: "RU"
        string_val: "RU"
        string_val: "RU"
        string_val: "RU"
        string_val: "RU"
        string_val: "RU"
        string_val: "RU"
        string_val: "RU"
        string_val: "RU"
        string_val: "RU"
        string_val: "RU"
        string_val: "RU"
        string_val: "RU"
        string_val: "RU"
        string_val: "RU"
        string_val: "RU"
        string_val: "RU"
        string_val: "RU"
        string_val: "RU"
        string_val: "RU"
        string_val: "RU"
        string_val: "RU"
        string_val: "RU"
        string_val: "RU"
        string_val: "RU"
        string_val: "RU"
        string_val: "RU"
        string_val: "RU"
        string_val: "RU"
        string_val: "RU"
        string_val: "RU"
        string_val: "RU"
        string_val: "RU"
        string_val: "RU"
        string_val: "RU"
        string_val: "RU"
        string_val: "RU"
        string_val: "RU"
        string_val: "RU"
        string_val: "RU"
        string_val: "RU"
        string_val: "RU"
        string_val: "RU"
        string_val: "RU"
        string_val: "RU"
        string_val: "RU"
        string_val: "RU"
        string_val: "RU"
        string_val: "RU"
        string_val: "RU"
        string_val: "RU"
        string_val: "RU"
        string_val: "RU"
        string_val: "RU"
        string_val: "RU"
        string_val: "RU"
        string_val: "RU"
        string_val: "RU"
        string_val: "RU"
        string_val: "RU"
        string_val: "RU"
        string_val: "RU"
        string_val: "RU"
        string_val: "RU"
        string_val: "RU"
        string_val: "RU"
        string_val: "MY"
        string_val: "MY"
        string_val: "MY"
        string_val: "MY"
        string_val: "MY"
        string_val: "MY"
        string_val: "MY"
        string_val: "MY"
        string_val: "MY"
        string_val: "MY"
        string_val: "MY"
        string_val: "MY"
        string_val: "MY"
        string_val: "MY"
        string_val: "MY"
        string_val: "MY"
        string_val: "MY"
        string_val: "MY"
        string_val: "MY"
        string_val: "MY"
        string_val: "MY"
        string_val: "MY"
        string_val: "MY"
        string_val: "MY"
        string_val: "MY"
        string_val: "MY"
        string_val: "MY"
        string_val: "MY"
        string_val: "MY"
        string_val: "MY"
        string_val: "MY"
        string_val: "MY"
        string_val: "MY"
        string_val: "MY"
        string_val: "MY"
        string_val: "MY"
        string_val: "MY"
        string_val: "MY"
        string_val: "MY"
        string_val: "MY"
        string_val: "MY"
        string_val: "MY"
        string_val: "MY"
        string_val: "MY"
        string_val: "MY"
        string_val: "MY"
        string_val: "MY"
        string_val: "MY"
        string_val: "MY"
        string_val: "MY"
        string_val: "MY"
        string_val: "MY"
        string_val: "MY"
        string_val: "MY"
        string_val: "MY"
        string_val: "MY"
        string_val: "MY"
        string_val: "MY"
        string_val: "MY"
        string_val: "MY"
        string_val: "MY"
        string_val: "MY"
        string_val: "MY"
        string_val: "MY"
        string_val: "MY"
        string_val: "MY"
        string_val: "MY"
        string_val: "MY"
        string_val: "MY"
        string_val: "MY"
        string_val: "MY"
        string_val: "MY"
        string_val: "MY"
        string_val: "MY"
        string_val: "MY"
        string_val: "MY"
        string_val: "MY"
        string_val: "MY"
        string_val: "MY"
        string_val: "MY"
        string_val: "SE"
        string_val: "SE"
        string_val: "SE"
        string_val: "SE"
        string_val: "SE"
        string_val: "SE"
        string_val: "SE"
        string_val: "SE"
        string_val: "SE"
        string_val: "SE"
        string_val: "SE"
        string_val: "SE"
        string_val: "SE"
        string_val: "SE"
        string_val: "SE"
        string_val: "SE"
        string_val: "SE"
        string_val: "SE"
        string_val: "SE"
        string_val: "SE"
        string_val: "SE"
        string_val: "SE"
        string_val: "SE"
        string_val: "SE"
        string_val: "SE"
        string_val: "SE"
        string_val: "SE"
        string_val: "SE"
        string_val: "SE"
        string_val: "SE"
        string_val: "SE"
        string_val: "SE"
        string_val: "SE"
        string_val: "SE"
        string_val: "SE"
        string_val: "SE"
        string_val: "SE"
        string_val: "SE"
        string_val: "SE"
        string_val: "SE"
        string_val: "SE"
        string_val: "SE"
        string_val: "SE"
        string_val: "SE"
        string_val: "SE"
        string_val: "SE"
        string_val: "SE"
        string_val: "SE"
        string_val: "SE"
        string_val: "SE"
        string_val: "SE"
        string_val: "SE"
        string_val: "SE"
        string_val: "SE"
        string_val: "SE"
        string_val: "SE"
        string_val: "SE"
        string_val: "SE"
        string_val: "SE"
        string_val: "SE"
        string_val: "SE"
        string_val: "SE"
        string_val: "SE"
        string_val: "SE"
        string_val: "SE"
        string_val: "SE"
        string_val: "SE"
        string_val: "SE"
        string_val: "SE"
        string_val: "SE"
        string_val: "SE"
        string_val: "SE"
        string_val: "SE"
        string_val: "SE"
        string_val: "SE"
        string_val: "SE"
        string_val: "SE"
        string_val: "SE"
        string_val: "SE"
        string_val: "SE"
        string_val: "SE"
        string_val: "SE"
        string_val: "SE"
        string_val: "SE"
        string_val: "SE"
        string_val: "SE"
        string_val: "SE"
        string_val: "SE"
        string_val: "US"
        string_val: "US"
        string_val: "US"
        string_val: "US"
        string_val: "US"
        string_val: "US"
        string_val: "US"
        string_val: "US"
        string_val: "US"
        string_val: "US"
        string_val: "US"
        string_val: "US"
        string_val: "US"
        string_val: "US"
        string_val: "US"
        string_val: "US"
        string_val: "US"
        string_val: "US"
        string_val: "US"
        string_val: "US"
        string_val: "US"
        string_val: "US"
        string_val: "US"
        string_val: "US"
        string_val: "US"
        string_val: "US"
        string_val: "US"
        string_val: "US"
        string_val: "US"
        string_val: "US"
      }
    }
  }
}
node {
  name: "tensors/component_2"
  op: "Const"
  device: "/device:CPU:0"
  attr {
    key: "_output_shapes"
    value {
      list {
        shape {
          dim {
            size: 998
          }
        }
      }
    }
  }
  attr {
    key: "dtype"
    value {
      type: DT_INT64
    }
  }
  attr {
    key: "value"
    value {
      tensor {
        dtype: DT_INT64
        tensor_shape {
          dim {
            size: 998
          }
        }
        tensor_content: "…"
      }
    }
  }
}
node {
  name: "tensors/component_3"
  op: "Const"
  device: "/device:CPU:0"
  attr {
    key: "_output_shapes"
    value {
      list {
        shape {
          dim {
            size: 998
          }
        }
      }
    }
  }
  attr {
    key: "dtype"
    value {
      type: DT_STRING
    }
  }
  attr {
    key: "value"
    value {
      tensor {
        dtype: DT_STRING
        tensor_shape {
          dim {
            size: 998
          }
        }
        string_val: "HTTP"
        string_val: "HTTP"
        string_val: "HTTP"
        string_val: "HTTP"
        string_val: "HTTP"
        string_val: "HTTP"
        string_val: "HTTP"
        string_val: "HTTP"
        string_val: "HTTP"
        string_val: "HTTP"
        string_val: "HTTP"
        string_val: "HTTP"
        string_val: "HTTP"
        string_val: "HTTP"
        string_val: "HTTP"
        string_val: "HTTP"
        string_val: "HTTP"
        string_val: "HTTP"
        string_val: "HTTP"
        string_val: "HTTP"
        string_val: "HTTP"
        string_val: "HTTP"
        string_val: "HTTP"
        string_val: "HTTP"
        string_val: "HTTP"
        string_val: "HTTP"
        string_val: "HTTP"
        string_val: "HTTP"
        string_val: "HTTP"
        string_val: "HTTP"
        string_val: "HTTP"
        string_val: "HTTP"
        string_val: "HTTP"
        string_val: "HTTP"
        string_val: "HTTP"
        string_val: "HTTP"
        string_val: "HTTP"
        string_val: "HTTP"
        string_val: "HTTP"
        string_val: "HTTP"
        string_val: "HTTP"
        string_val: "HTTP"
        string_val: "HTTP"
        string_val: "HTTP"
        string_val: "HTTP"
        string_val: "HTTP"
        string_val: "HTTP"
        string_val: "HTTP"
        string_val: "HTTP"
        string_val: "HTTP"
        string_val: "HTTP"
        string_val: "HTTP"
        string_val: "HTTP"
        string_val: "HTTP"
        string_val: "HTTP"
        string_val: "HTTP"
        string_val: "HTTP"
        string_val: "HTTP"
        string_val: "HTTP"
        string_val: "HTTP"
        string_val: "HTTP"
        string_val: "HTTP"
        string_val: "HTTP"
        string_val: "HTTP"
        string_val: "HTTP"
        string_val: "HTTP"
        string_val: "HTTP"
        string_val: "HTTP"
        string_val: "HTTP"
        string_val: "HTTP"
        string_val: "HTTP"
        string_val: "HTTP"
        string_val: "HTTP"
        string_val: "HTTP"
        string_val: "HTTP"
        string_val: "HTTP"
        string_val: "HTTP"
        string_val: "HTTP"
        string_val: "HTTP"
        string_val: "HTTP"
        string_val: "HTTP"
        string_val: "HTTP"
        string_val: "HTTP"
        string_val: "HTTP"
        string_val: "HTTP"
        string_val: "HTTP"
        string_val: "HTTP"
        string_val: "HTTP"
        string_val: "HTTP"
        string_val: "HTTP"
        string_val: "HTTP"
        string_val: "HTTP"
        string_val: "HTTP"
        string_val: "HTTP"
        string_val: "HTTP"
        string_val: "HTTP"
        string_val: "HTTP"
        string_val: "HTTP"
        string_val: "HTTP"
        string_val: "HTTP"
        string_val: "HTTP"
        string_val: "HTTP"
        string_val: "HTTP"
        string_val: "HTTP"
        string_val: "HTTP"
        string_val: "HTTP"
        string_val: "HTTP"
        string_val: "HTTP"
        string_val: "HTTP"
        string_val: "HTTP"
        string_val: "HTTP"
        string_val: "HTTP"
        string_val: "HTTP"
        string_val: "HTTP"
        string_val: "HTTP"
        string_val: "HTTP"
        string_val: "HTTP"
        string_val: "HTTP"
        string_val: "HTTP"
        string_val: "HTTP"
        string_val: "HTTP"
        string_val: "HTTP"
        string_val: "HTTP"
        string_val: "HTTP"
        string_val: "HTTP"
        string_val: "HTTP"
        string_val: "HTTP"
        string_val: "HTTP"
        string_val: "HTTP"
        string_val: "HTTP"
        string_val: "HTTP"
        string_val: "HTTP"
        string_val: "HTTP"
        string_val: "HTTP"
        string_val: "HTTP"
        string_val: "HTTP"
        string_val: "HTTP"
        string_val: "HTTP"
        string_val: "HTTP"
        string_val: "HTTP"
        string_val: "HTTP"
        string_val: "HTTP"
        string_val: "HTTP"
        string_val: "HTTP"
        string_val: "HTTP"
        string_val: "HTTP"
        string_val: "HTTP"
        string_val: "HTTP"
        string_val: "HTTP"
        string_val: "HTTP"
        string_val: "HTTP"
        string_val: "HTTP"
        string_val: "HTTP"
        string_val: "HTTP"
        string_val: "HTTP"
        string_val: "HTTP"
        string_val: "HTTP"
        string_val: "HTTP"
        string_val: "HTTP"
        string_val: "HTTP"
        string_val: "HTTP"
        string_val: "HTTP"
        string_val: "HTTP"
        string_val: "HTTP"
        string_val: "HTTP"
        string_val: "HTTP"
        string_val: "HTTP"
        string_val: "HTTP"
        string_val: "HTTP"
        string_val: "HTTP"
        string_val: "HTTP"
        string_val: "HTTP"
        string_val: "HTTP"
        string_val: "HTTP"
        string_val: "HTTP"
        string_val: "HTTP"
        string_val: "HTTP"
        string_val: "HTTP"
        string_val: "HTTP"
        string_val: "HTTP"
        string_val: "HTTP"
        string_val: "HTTP"
        string_val: "HTTP"
        string_val: "HTTP"
        string_val: "HTTP"
        string_val: "HTTP"
        string_val: "HTTP"
        string_val: "HTTP"
        string_val: "HTTP"
        string_val: "HTTP"
        string_val: "HTTP"
        string_val: "HTTP"
        string_val: "HTTP"
        string_val: "HTTP"
        string_val: "HTTP"
        string_val: "HTTP"
        string_val: "HTTP"
        string_val: "HTTP"
        string_val: "HTTP"
        string_val: "HTTP"
        string_val: "HTTP"
        string_val: "HTTP"
        string_val: "HTTP"
        string_val: "HTTP"
        string_val: "HTTP"
        string_val: "HTTP"
        string_val: "HTTP"
        string_val: "HTTP"
        string_val: "HTTP"
        string_val: "HTTP"
        string_val: "HTTP"
        string_val: "HTTP"
        string_val: "HTTP"
        string_val: "HTTP"
        string_val: "HTTP"
        string_val: "HTTP"
        string_val: "HTTP"
        string_val: "HTTP"
        string_val: "HTTP"
        string_val: "HTTP"
        string_val: "HTTP"
        string_val: "HTTP"
        string_val: "HTTP"
        string_val: "HTTP"
        string_val: "HTTP"
        string_val: "HTTP"
        string_val: "HTTP"
        string_val: "HTTP"
        string_val: "HTTP"
        string_val: "HTTP"
        string_val: "HTTP"
        string_val: "HTTP"
        string_val: "HTTP"
        string_val: "HTTP"
        string_val: "HTTP"
        string_val: "HTTP"
        string_val: "HTTP"
        string_val: "HTTP"
        string_val: "HTTP"
        string_val: "HTTP"
        string_val: "HTTP"
        string_val: "HTTP"
        string_val: "HTTP"
        string_val: "HTTP"
        string_val: "HTTP"
        string_val: "HTTP"
        string_val: "HTTP"
        string_val: "HTTP"
        string_val: "HTTP"
        string_val: "HTTP"
        string_val: "HTTP"
        string_val: "HTTP"
        string_val: "HTTP"
        string_val: "HTTP"
        string_val: "HTTP"
        string_val: "HTTP"
        string_val: "HTTP"
        string_val: "HTTP"
        string_val: "HTTP"
        string_val: "HTTP"
        string_val: "HTTP"
        string_val: "HTTP"
        string_val: "HTTP"
        string_val: "HTTP"
        string_val: "HTTP"
        string_val: "HTTP"
        string_val: "HTTP"
        string_val: "HTTP"
        string_val: "HTTP"
        string_val: "HTTP"
        string_val: "HTTP"
        string_val: "HTTP"
        string_val: "HTTP"
        string_val: "HTTP"
        string_val: "HTTP"
        string_val: "HTTP"
        string_val: "HTTP"
        string_val: "HTTP"
        string_val: "HTTP"
        string_val: "HTTP"
        string_val: "HTTP"
        string_val: "HTTP"
        string_val: "HTTP"
        string_val: "HTTP"
        string_val: "HTTP"
        string_val: "HTTP"
        string_val: "HTTP"
        string_val: "HTTP"
        string_val: "HTTP"
        string_val: "HTTP"
        string_val: "HTTP"
        string_val: "HTTP"
        string_val: "HTTP"
        string_val: "HTTP"
        string_val: "HTTP"
        string_val: "HTTP"
        string_val: "HTTP"
        string_val: "HTTP"
        string_val: "HTTP"
        string_val: "HTTP"
        string_val: "HTTP"
        string_val: "HTTP"
        string_val: "HTTP"
        string_val: "HTTP"
        string_val: "HTTP"
        string_val: "HTTP"
        string_val: "HTTP"
        string_val: "HTTP"
        string_val: "HTTP"
        string_val: "HTTP"
        string_val: "HTTP"
        string_val: "HTTP"
        string_val: "HTTP"
        string_val: "HTTP"
        string_val: "HTTP"
        string_val: "HTTP"
        string_val: "HTTP"
        string_val: "HTTP"
        string_val: "HTTP"
        string_val: "HTTP"
        string_val: "HTTP"
        string_val: "HTTP"
        string_val: "HTTP"
        string_val: "HTTP"
        string_val: "HTTP"
        string_val: "HTTP"
        string_val: "HTTP"
        string_val: "HTTP"
        string_val: "HTTP"
        string_val: "HTTP"
        string_val: "HTTP"
        string_val: "HTTP"
        string_val: "HTTP"
        string_val: "HTTP"
        string_val: "HTTP"
        string_val: "HTTP"
        string_val: "HTTP"
        string_val: "HTTP"
        string_val: "HTTP"
        string_val: "HTTP"
        string_val: "HTTP"
        string_val: "HTTP"
        string_val: "HTTP"
        string_val: "HTTP"
        string_val: "HTTP"
        string_val: "HTTP"
        string_val: "HTTP"
        string_val: "HTTP"
        string_val: "HTTP"
        string_val: "HTTP"
        string_val: "HTTP"
        string_val: "HTTP"
        string_val: "HTTP"
        string_val: "HTTP"
        string_val: "HTTP"
        string_val: "HTTP"
        string_val: "HTTP"
        string_val: "HTTP"
        string_val: "HTTP"
        string_val: "HTTP"
        string_val: "HTTP"
        string_val: "HTTP"
        string_val: "HTTP"
        string_val: "HTTP"
        string_val: "HTTP"
        string_val: "HTTP"
        string_val: "HTTP"
        string_val: "HTTP"
        string_val: "HTTP"
        string_val: "HTTP"
        string_val: "HTTP"
        string_val: "HTTP"
        string_val: "HTTP"
        string_val: "HTTP"
        string_val: "HTTP"
        string_val: "HTTP"
        string_val: "HTTP"
        string_val: "HTTP"
        string_val: "HTTP"
        string_val: "HTTP"
        string_val: "HTTP"
        string_val: "HTTP"
        string_val: "HTTP"
        string_val: "HTTP"
        string_val: "HTTP"
        string_val: "HTTP"
        string_val: "HTTP"
        string_val: "HTTP"
        string_val: "HTTP"
        string_val: "HTTP"
        string_val: "HTTP"
        string_val: "HTTP"
        string_val: "HTTP"
        string_val: "HTTP"
        string_val: "HTTP"
        string_val: "HTTP"
        string_val: "HTTP"
        string_val: "HTTP"
        string_val: "HTTP"
        string_val: "HTTP"
        string_val: "HTTP"
        string_val: "HTTP"
        string_val: "HTTP"
        string_val: "HTTP"
        string_val: "HTTP"
        string_val: "HTTP"
        string_val: "HTTP"
        string_val: "HTTP"
        string_val: "HTTP"
        string_val: "HTTP"
        string_val: "HTTP"
        string_val: "HTTP"
        string_val: "HTTP"
        string_val: "HTTP"
        string_val: "HTTP"
        string_val: "HTTP"
        string_val: "HTTP"
        string_val: "HTTP"
        string_val: "HTTP"
        string_val: "HTTP"
        string_val: "HTTP"
        string_val: "HTTP"
        string_val: "HTTP"
        string_val: "HTTP"
        string_val: "HTTP"
        string_val: "HTTP"
        string_val: "HTTP"
        string_val: "HTTP"
        string_val: "HTTP"
        string_val: "HTTP"
        string_val: "HTTP"
        string_val: "HTTP"
        string_val: "HTTP"
        string_val: "HTTP"
        string_val: "HTTP"
        string_val: "HTTP"
        string_val: "HTTP"
        string_val: "HTTP"
        string_val: "HTTP"
        string_val: "HTTP"
        string_val: "HTTP"
        string_val: "HTTP"
        string_val: "HTTP"
        string_val: "HTTP"
        string_val: "HTTP"
        string_val: "HTTP"
        string_val: "HTTP"
        string_val: "HTTP"
        string_val: "HTTP"
        string_val: "HTTP"
        string_val: "HTTP"
        string_val: "HTTP"
        string_val: "HTTP"
        string_val: "HTTP"
        string_val: "HTTP"
        string_val: "HTTP"
        string_val: "HTTP"
        string_val: "HTTP"
        string_val: "HTTP"
        string_val: "HTTP"
        string_val: "HTTP"
        string_val: "HTTP"
        string_val: "HTTP"
        string_val: "HTTP"
        string_val: "HTTP"
        string_val: "HTTP"
        string_val: "HTTP"
        string_val: "HTTP"
        string_val: "HTTP"
        string_val: "HTTP"
        string_val: "HTTP"
        string_val: "HTTP"
        string_val: "HTTP"
        string_val: "HTTP"
        string_val: "HTTP"
        string_val: "HTTP"
        string_val: "HTTP"
        string_val: "HTTP"
        string_val: "HTTP"
        string_val: "HTTP"
        string_val: "HTTP"
        string_val: "HTTP"
        string_val: "HTTP"
        string_val: "HTTP"
        string_val: "HTTP"
        string_val: "HTTP"
        string_val: "HTTP"
        string_val: "HTTP"
        string_val: "HTTP"
        string_val: "HTTP"
        string_val: "HTTP"
        string_val: "HTTP"
        string_val: "HTTP"
        string_val: "HTTP"
        string_val: "HTTP"
        string_val: "HTTP"
        string_val: "HTTP"
        string_val: "HTTP"
        string_val: "HTTP"
        string_val: "HTTP"
        string_val: "HTTP"
        string_val: "HTTP"
        string_val: "HTTP"
        string_val: "HTTP"
        string_val: "HTTP"
        string_val: "HTTP"
        string_val: "HTTP"
        string_val: "HTTP"
        string_val: "HTTP"
        string_val: "HTTP"
        string_val: "HTTP"
        string_val: "HTTP"
        string_val: "HTTP"
        string_val: "HTTP"
        string_val: "HTTP"
        string_val: "HTTP"
        string_val: "HTTP"
        string_val: "HTTP"
        string_val: "HTTP"
        string_val: "HTTP"
        string_val: "HTTP"
        string_val: "HTTP"
        string_val: "HTTP"
        string_val: "HTTP"
        string_val: "HTTP"
        string_val: "HTTP"
        string_val: "HTTP"
        string_val: "HTTP"
        string_val: "HTTP"
        string_val: "HTTP"
        string_val: "HTTP"
        string_val: "HTTP"
        string_val: "HTTP"
        string_val: "HTTP"
        string_val: "HTTP"
        string_val: "HTTP"
        string_val: "HTTP"
        string_val: "HTTP"
        string_val: "HTTP"
        string_val: "HTTP"
        string_val: "HTTP"
        string_val: "HTTP"
        string_val: "HTTP"
        string_val: "HTTP"
        string_val: "HTTP"
        string_val: "HTTP"
        string_val: "HTTP"
        string_val: "HTTP"
        string_val: "HTTP"
        string_val: "HTTP"
        string_val: "HTTP"
        string_val: "HTTP"
        string_val: "HTTP"
        string_val: "HTTP"
        string_val: "HTTP"
        string_val: "HTTP"
        string_val: "HTTP"
        string_val: "HTTP"
        string_val: "HTTP"
        string_val: "HTTP"
        string_val: "HTTP"
        string_val: "HTTP"
        string_val: "HTTP"
        string_val: "HTTP"
        string_val: "HTTP"
        string_val: "HTTP"
        string_val: "HTTP"
        string_val: "HTTP"
        string_val: "HTTP"
        string_val: "HTTP"
        string_val: "HTTP"
        string_val: "HTTP"
        string_val: "HTTP"
        string_val: "HTTP"
        string_val: "HTTP"
        string_val: "HTTP"
        string_val: "HTTP"
        string_val: "HTTP"
        string_val: "HTTP"
        string_val: "HTTP"
        string_val: "HTTP"
        string_val: "HTTP"
        string_val: "HTTP"
        string_val: "HTTP"
        string_val: "HTTP"
        string_val: "HTTP"
        string_val: "HTTP"
        string_val: "HTTP"
        string_val: "HTTP"
        string_val: "HTTP"
        string_val: "HTTP"
        string_val: "HTTP"
        string_val: "HTTP"
        string_val: "HTTP"
        string_val: "HTTP"
        string_val: "HTTP"
        string_val: "HTTP"
        string_val: "HTTP"
        string_val: "HTTP"
        string_val: "HTTP"
        string_val: "HTTP"
        string_val: "HTTP"
        string_val: "HTTP"
        string_val: "HTTP"
        string_val: "HTTP"
        string_val: "HTTP"
        string_val: "HTTP"
        string_val: "HTTP"
        string_val: "HTTP"
        string_val: "HTTP"
        string_val: "HTTP"
        string_val: "HTTP"
        string_val: "HTTP"
        string_val: "HTTP"
        string_val: "HTTP"
        string_val: "HTTP"
        string_val: "HTTP"
        string_val: "HTTP"
        string_val: "HTTP"
        string_val: "HTTP"
        string_val: "HTTP"
        string_val: "HTTP"
        string_val: "HTTP"
        string_val: "HTTP"
        string_val: "HTTP"
        string_val: "HTTP"
        string_val: "HTTP"
        string_val: "HTTP"
        string_val: "HTTP"
        string_val: "HTTP"
        string_val: "HTTP"
        string_val: "HTTP"
        string_val: "HTTP"
        string_val: "HTTP"
        string_val: "HTTP"
        string_val: "HTTP"
        string_val: "HTTP"
        string_val: "HTTP"
        string_val: "HTTP"
        string_val: "HTTP"
        string_val: "HTTP"
        string_val: "HTTP"
        string_val: "HTTP"
        string_val: "HTTP"
        string_val: "HTTP"
        string_val: "HTTP"
        string_val: "HTTP"
        string_val: "HTTP"
        string_val: "HTTP"
        string_val: "HTTP"
        string_val: "HTTP"
        string_val: "HTTP"
        string_val: "HTTP"
        string_val: "HTTP"
        string_val: "HTTP"
        string_val: "HTTP"
        string_val: "HTTP"
        string_val: "HTTP"
        string_val: "HTTP"
        string_val: "HTTP"
        string_val: "HTTP"
        string_val: "HTTP"
        string_val: "HTTP"
        string_val: "HTTP"
        string_val: "HTTP"
        string_val: "HTTP"
        string_val: "HTTP"
        string_val: "HTTP"
        string_val: "HTTP"
        string_val: "HTTP"
        string_val: "HTTP"
        string_val: "HTTP"
        string_val: "HTTP"
        string_val: "HTTP"
        string_val: "HTTP"
        string_val: "HTTP"
        string_val: "HTTP"
        string_val: "HTTP"
        string_val: "HTTP"
        string_val: "HTTP"
        string_val: "HTTP"
        string_val: "HTTP"
        string_val: "HTTP"
        string_val: "HTTP"
        string_val: "HTTP"
        string_val: "HTTP"
        string_val: "HTTP"
        string_val: "HTTP"
        string_val: "HTTP"
        string_val: "HTTP"
        string_val: "HTTP"
        string_val: "HTTP"
        string_val: "HTTP"
        string_val: "HTTP"
        string_val: "HTTP"
        string_val: "HTTP"
        string_val: "HTTP"
        string_val: "HTTP"
        string_val: "HTTP"
        string_val: "HTTP"
        string_val: "HTTP"
        string_val: "HTTP"
        string_val: "HTTP"
        string_val: "HTTP"
        string_val: "HTTP"
        string_val: "HTTP"
        string_val: "HTTP"
        string_val: "HTTP"
        string_val: "HTTP"
        string_val: "HTTP"
        string_val: "HTTP"
        string_val: "HTTP"
        string_val: "HTTP"
        string_val: "HTTP"
        string_val: "HTTP"
        string_val: "HTTP"
        string_val: "HTTP"
        string_val: "HTTP"
        string_val: "HTTP"
        string_val: "HTTP"
        string_val: "HTTP"
        string_val: "HTTP"
        string_val: "HTTP"
        string_val: "HTTP"
        string_val: "HTTP"
        string_val: "HTTP"
        string_val: "HTTP"
        string_val: "HTTP"
        string_val: "HTTP"
        string_val: "HTTP"
        string_val: "HTTP"
        string_val: "HTTP"
        string_val: "HTTP"
        string_val: "HTTP"
        string_val: "HTTP"
        string_val: "HTTP"
        string_val: "HTTP"
        string_val: "HTTP"
        string_val: "HTTP"
        string_val: "HTTP"
        string_val: "HTTP"
        string_val: "HTTP"
        string_val: "HTTP"
        string_val: "HTTP"
        string_val: "HTTP"
        string_val: "HTTP"
        string_val: "HTTP"
        string_val: "HTTP"
        string_val: "HTTP"
        string_val: "HTTP"
        string_val: "HTTP"
        string_val: "HTTP"
        string_val: "HTTP"
        string_val: "HTTP"
        string_val: "HTTP"
        string_val: "HTTP"
        string_val: "HTTP"
        string_val: "HTTP"
        string_val: "HTTP"
        string_val: "HTTP"
        string_val: "HTTP"
        string_val: "HTTP"
        string_val: "HTTP"
        string_val: "HTTP"
        string_val: "HTTP"
        string_val: "HTTP"
        string_val: "HTTP"
        string_val: "HTTP"
        string_val: "HTTP"
        string_val: "HTTP"
        string_val: "HTTP"
        string_val: "HTTP"
        string_val: "HTTP"
        string_val: "HTTP"
        string_val: "HTTP"
        string_val: "HTTP"
        string_val: "HTTP"
        string_val: "HTTP"
        string_val: "HTTP"
        string_val: "HTTP"
        string_val: "HTTP"
        string_val: "HTTP"
        string_val: "HTTP"
        string_val: "HTTP"
        string_val: "HTTP"
        string_val: "HTTP"
        string_val: "HTTP"
        string_val: "HTTP"
        string_val: "HTTP"
        string_val: "HTTP"
        string_val: "HTTP"
        string_val: "HTTP"
        string_val: "HTTP"
        string_val: "HTTP"
        string_val: "HTTP"
        string_val: "HTTP"
        string_val: "HTTP"
        string_val: "HTTP"
        string_val: "HTTP"
        string_val: "HTTP"
        string_val: "HTTP"
        string_val: "HTTP"
        string_val: "HTTP"
        string_val: "HTTP"
        string_val: "HTTP"
        string_val: "HTTP"
        string_val: "HTTP"
        string_val: "HTTP"
        string_val: "HTTP"
        string_val: "HTTP"
        string_val: "HTTP"
        string_val: "HTTP"
        string_val: "HTTP"
        string_val: "HTTP"
        string_val: "HTTP"
        string_val: "HTTP"
        string_val: "HTTP"
        string_val: "HTTP"
        string_val: "HTTP"
        string_val: "HTTP"
        string_val: "HTTP"
        string_val: "HTTP"
        string_val: "HTTP"
        string_val: "HTTP"
        string_val: "HTTP"
        string_val: "HTTP"
        string_val: "HTTP"
        string_val: "HTTP"
        string_val: "HTTP"
        string_val: "HTTP"
        string_val: "HTTP"
        string_val: "HTTP"
        string_val: "HTTP"
        string_val: "HTTP"
        string_val: "HTTP"
        string_val: "HTTP"
        string_val: "HTTP"
        string_val: "HTTP"
        string_val: "HTTP"
        string_val: "HTTP"
        string_val: "HTTP"
        string_val: "HTTP"
        string_val: "HTTP"
        string_val: "HTTP"
        string_val: "HTTP"
        string_val: "HTTP"
        string_val: "HTTP"
        string_val: "HTTP"
        string_val: "HTTP"
        string_val: "HTTP"
        string_val: "HTTP"
        string_val: "HTTP"
        string_val: "HTTP"
        string_val: "HTTP"
        string_val: "HTTP"
        string_val: "HTTP"
        string_val: "HTTP"
        string_val: "HTTP"
        string_val: "HTTP"
        string_val: "HTTP"
        string_val: "HTTP"
        string_val: "HTTP"
        string_val: "HTTP"
        string_val: "HTTP"
        string_val: "HTTP"
        string_val: "HTTP"
        string_val: "HTTP"
        string_val: "HTTP"
        string_val: "HTTP"
        string_val: "HTTP"
        string_val: "HTTP"
        string_val: "HTTP"
        string_val: "HTTP"
        string_val: "HTTP"
        string_val: "HTTP"
        string_val: "HTTP"
        string_val: "HTTP"
        string_val: "HTTP"
        string_val: "HTTP"
        string_val: "HTTP"
        string_val: "HTTP"
        string_val: "HTTP"
        string_val: "HTTP"
        string_val: "HTTP"
        string_val: "HTTP"
        string_val: "HTTP"
        string_val: "HTTP"
        string_val: "HTTP"
        string_val: "HTTP"
        string_val: "HTTP"
        string_val: "HTTP"
        string_val: "HTTP"
        string_val: "HTTP"
        string_val: "HTTP"
        string_val: "HTTP"
        string_val: "HTTP"
        string_val: "HTTP"
        string_val: "HTTP"
        string_val: "HTTP"
        string_val: "HTTP"
        string_val: "HTTP"
        string_val: "HTTP"
        string_val: "HTTP"
        string_val: "HTTP"
        string_val: "HTTP"
        string_val: "HTTP"
        string_val: "HTTP"
        string_val: "HTTP"
        string_val: "HTTP"
        string_val: "HTTP"
        string_val: "HTTP"
        string_val: "HTTP"
        string_val: "HTTP"
        string_val: "HTTP"
        string_val: "HTTP"
        string_val: "HTTP"
        string_val: "HTTP"
        string_val: "HTTP"
        string_val: "HTTP"
        string_val: "HTTP"
        string_val: "HTTP"
        string_val: "HTTP"
        string_val: "HTTP"
        string_val: "HTTP"
        string_val: "HTTP"
        string_val: "HTTP"
        string_val: "HTTP"
        string_val: "HTTP"
        string_val: "HTTP"
        string_val: "HTTP"
        string_val: "HTTP"
        string_val: "HTTP"
        string_val: "HTTP"
        string_val: "HTTP"
        string_val: "HTTP"
        string_val: "HTTP"
        string_val: "HTTP"
        string_val: "HTTP"
        string_val: "HTTP"
        string_val: "HTTP"
        string_val: "HTTP"
        string_val: "HTTP"
        string_val: "HTTP"
        string_val: "HTTP"
        string_val: "HTTP"
        string_val: "HTTP"
        string_val: "HTTP"
        string_val: "HTTP"
        string_val: "HTTP"
        string_val: "HTTP"
        string_val: "HTTP"
        string_val: "HTTP"
        string_val: "HTTP"
        string_val: "HTTP"
        string_val: "HTTP"
        string_val: "HTTP"
        string_val: "HTTP"
        string_val: "HTTP"
        string_val: "HTTP"
        string_val: "HTTP"
        string_val: "HTTP"
        string_val: "HTTP"
        string_val: "HTTP"
        string_val: "HTTP"
        string_val: "HTTP"
        string_val: "HTTP"
        string_val: "HTTP"
        string_val: "HTTP"
        string_val: "HTTP"
        string_val: "HTTP"
        string_val: "HTTP"
        string_val: "HTTP"
        string_val: "HTTP"
        string_val: "HTTP"
        string_val: "HTTP"
        string_val: "HTTP"
        string_val: "HTTP"
        string_val: "HTTP"
        string_val: "HTTP"
        string_val: "HTTP"
        string_val: "HTTP"
        string_val: "HTTP"
        string_val: "HTTP"
        string_val: "HTTP"
        string_val: "HTTP"
        string_val: "HTTP"
        string_val: "HTTP"
        string_val: "HTTP"
        string_val: "HTTP"
        string_val: "HTTP"
        string_val: "HTTP"
        string_val: "HTTP"
        string_val: "HTTP"
        string_val: "HTTP"
        string_val: "HTTP"
        string_val: "HTTP"
        string_val: "HTTP"
        string_val: "HTTP"
      }
    }
  }
}
node {
  name: "tensors/component_4"
  op: "Const"
  device: "/device:CPU:0"
  attr {
    key: "_output_shapes"
    value {
      list {
        shape {
          dim {
            size: 998
          }
        }
      }
    }
  }
  attr {
    key: "dtype"
    value {
      type: DT_INT64
    }
  }
  attr {
    key: "value"
    value {
      tensor {
        dtype: DT_INT64
        tensor_shape {
          dim {
            size: 998
          }
        }
        tensor_content: "…"
      }
    }
  }
}
node {
  name: "tensors/component_5"
  op: "Const"
  device: "/device:CPU:0"
  attr {
    key: "_output_shapes"
    value {
      list {
        shape {
          dim {
            size: 998
          }
        }
      }
    }
  }
  attr {
    key: "dtype"
    value {
      type: DT_INT64
    }
  }
  attr {
    key: "value"
    value {
      tensor {
        dtype: DT_INT64
        tensor_shape {
          dim {
            size: 998
          }
        }
        tensor_content: "…"
      }
    }
  }
}
node {
  name: "tensors/component_6"
  op: "Const"
  device: "/device:CPU:0"
  attr {
    key: "_output_shapes"
    value {
      list {
        shape {
          dim {
            size: 998
          }
        }
      }
    }
  }
  attr {
    key: "dtype"
    value {
      type: DT_INT64
    }
  }
  attr {
    key: "value"
    value {
      tensor {
        dtype: DT_INT64
        tensor_shape {
          dim {
            size: 998
          }
        }
        tensor_content: "…"
      }
    }
  }
}
node {
  name: "buffer_size"
  op: "Const"
  device: "/device:CPU:0"
  attr {
    key: "_output_shapes"
    value {
      list {
        shape {
        }
      }
    }
  }
  attr {
    key: "dtype"
    value {
      type: DT_INT64
    }
  }
  attr {
    key: "value"
    value {
      tensor {
        dtype: DT_INT64
        tensor_shape {
        }
        int64_val: 10000
      }
    }
  }
}
node {
  name: "seed"
  op: "Const"
  device: "/device:CPU:0"
  attr {
    key: "_output_shapes"
    value {
      list {
        shape {
        }
      }
    }
  }
  attr {
    key: "dtype"
    value {
      type: DT_INT64
    }
  }
  attr {
    key: "value"
    value {
      tensor {
        dtype: DT_INT64
        tensor_shape {
        }
        int64_val: 0
      }
    }
  }
}
node {
  name: "seed2"
  op: "Const"
  device: "/device:CPU:0"
  attr {
    key: "_output_shapes"
    value {
      list {
        shape {
        }
      }
    }
  }
  attr {
    key: "dtype"
    value {
      type: DT_INT64
    }
  }
  attr {
    key: "value"
    value {
      tensor {
        dtype: DT_INT64
        tensor_shape {
        }
        int64_val: 0
      }
    }
  }
}
node {
  name: "count"
  op: "Const"
  device: "/device:CPU:0"
  attr {
    key: "_output_shapes"
    value {
      list {
        shape {
        }
      }
    }
  }
  attr {
    key: "dtype"
    value {
      type: DT_INT64
    }
  }
  attr {
    key: "value"
    value {
      tensor {
        dtype: DT_INT64
        tensor_shape {
        }
        int64_val: -1
      }
    }
  }
}
node {
  name: "batch_size"
  op: "Const"
  device: "/device:CPU:0"
  attr {
    key: "_output_shapes"
    value {
      list {
        shape {
        }
      }
    }
  }
  attr {
    key: "dtype"
    value {
      type: DT_INT64
    }
  }
  attr {
    key: "value"
    value {
      tensor {
        dtype: DT_INT64
        tensor_shape {
        }
        int64_val: 100
      }
    }
  }
}
node {
  name: "OneShotIterator"
  op: "OneShotIterator"
  device: "/device:CPU:0"
  attr {
    key: "_output_shapes"
    value {
      list {
        shape {
        }
      }
    }
  }
  attr {
    key: "container"
    value {
      s: ""
    }
  }
  attr {
    key: "dataset_factory"
    value {
      func {
        name: "_make_dataset_MhbAEYEB0cI"
      }
    }
  }
  attr {
    key: "output_shapes"
    value {
      list {
        shape {
          dim {
            size: -1
          }
        }
        shape {
          dim {
            size: -1
          }
        }
        shape {
          dim {
            size: -1
          }
        }
        shape {
          dim {
            size: -1
          }
        }
        shape {
          dim {
            size: -1
          }
        }
        shape {
          dim {
            size: -1
          }
        }
        shape {
          dim {
            size: -1
          }
        }
      }
    }
  }
  attr {
    key: "output_types"
    value {
      list {
        type: DT_STRING
        type: DT_STRING
        type: DT_INT64
        type: DT_STRING
        type: DT_INT64
        type: DT_INT64
        type: DT_INT64
      }
    }
  }
  attr {
    key: "shared_name"
    value {
      s: ""
    }
  }
}
node {
  name: "IteratorToStringHandle"
  op: "IteratorToStringHandle"
  input: "OneShotIterator"
  device: "/device:CPU:0"
  attr {
    key: "_output_shapes"
    value {
      list {
        shape {
        }
      }
    }
  }
}
node {
  name: "IteratorGetNext"
  op: "IteratorGetNext"
  input: "OneShotIterator"
  device: "/device:CPU:0"
  attr {
    key: "_output_shapes"
    value {
      list {
        shape {
          dim {
            size: -1
          }
        }
        shape {
          dim {
            size: -1
          }
        }
        shape {
          dim {
            size: -1
          }
        }
        shape {
          dim {
            size: -1
          }
        }
        shape {
          dim {
            size: -1
          }
        }
        shape {
          dim {
            size: -1
          }
        }
        shape {
          dim {
            size: -1
          }
        }
      }
    }
  }
  attr {
    key: "output_shapes"
    value {
      list {
        shape {
          dim {
            size: -1
          }
        }
        shape {
          dim {
            size: -1
          }
        }
        shape {
          dim {
            size: -1
          }
        }
        shape {
          dim {
            size: -1
          }
        }
        shape {
          dim {
            size: -1
          }
        }
        shape {
          dim {
            size: -1
          }
        }
        shape {
          dim {
            size: -1
          }
        }
      }
    }
  }
  attr {
    key: "output_types"
    value {
      list {
        type: DT_STRING
        type: DT_STRING
        type: DT_INT64
        type: DT_STRING
        type: DT_INT64
        type: DT_INT64
        type: DT_INT64
      }
    }
  }
}
node {
  name: "dnn/input_from_feature_columns/input_layer/port/ExpandDims/dim"
  op: "Const"
  attr {
    key: "_output_shapes"
    value {
      list {
        shape {
        }
      }
    }
  }
  attr {
    key: "dtype"
    value {
      type: DT_INT32
    }
  }
  attr {
    key: "value"
    value {
      tensor {
        dtype: DT_INT32
        tensor_shape {
        }
        int_val: -1
      }
    }
  }
}
node {
  name: "dnn/input_from_feature_columns/input_layer/port/ExpandDims"
  op: "ExpandDims"
  input: "IteratorGetNext:2"
  input: "dnn/input_from_feature_columns/input_layer/port/ExpandDims/dim"
  attr {
    key: "T"
    value {
      type: DT_INT64
    }
  }
  attr {
    key: "Tdim"
    value {
      type: DT_INT32
    }
  }
  attr {
    key: "_output_shapes"
    value {
      list {
        shape {
          dim {
            size: -1
          }
          dim {
            size: 1
          }
        }
      }
    }
  }
}
node {
  name: "dnn/input_from_feature_columns/input_layer/port/ToFloat"
  op: "Cast"
  input: "dnn/input_from_feature_columns/input_layer/port/ExpandDims"
  attr {
    key: "DstT"
    value {
      type: DT_FLOAT
    }
  }
  attr {
    key: "SrcT"
    value {
      type: DT_INT64
    }
  }
  attr {
    key: "_output_shapes"
    value {
      list {
        shape {
          dim {
            size: -1
          }
          dim {
            size: 1
          }
        }
      }
    }
  }
}
node {
  name: "dnn/input_from_feature_columns/input_layer/port/Shape"
  op: "Shape"
  input: "dnn/input_from_feature_columns/input_layer/port/ToFloat"
  attr {
    key: "T"
    value {
      type: DT_FLOAT
    }
  }
  attr {
    key: "_output_shapes"
    value {
      list {
        shape {
          dim {
            size: 2
          }
        }
      }
    }
  }
  attr {
    key: "out_type"
    value {
      type: DT_INT32
    }
  }
}
node {
  name: "dnn/input_from_feature_columns/input_layer/port/strided_slice/stack"
  op: "Const"
  attr {
    key: "_output_shapes"
    value {
      list {
        shape {
          dim {
            size: 1
          }
        }
      }
    }
  }
  attr {
    key: "dtype"
    value {
      type: DT_INT32
    }
  }
  attr {
    key: "value"
    value {
      tensor {
        dtype: DT_INT32
        tensor_shape {
          dim {
            size: 1
          }
        }
        int_val: 0
      }
    }
  }
}
node {
  name: "dnn/input_from_feature_columns/input_layer/port/strided_slice/stack_1"
  op: "Const"
  attr {
    key: "_output_shapes"
    value {
      list {
        shape {
          dim {
            size: 1
          }
        }
      }
    }
  }
  attr {
    key: "dtype"
    value {
      type: DT_INT32
    }
  }
  attr {
    key: "value"
    value {
      tensor {
        dtype: DT_INT32
        tensor_shape {
          dim {
            size: 1
          }
        }
        int_val: 1
      }
    }
  }
}
node {
  name: "dnn/input_from_feature_columns/input_layer/port/strided_slice/stack_2"
  op: "Const"
  attr {
    key: "_output_shapes"
    value {
      list {
        shape {
          dim {
            size: 1
          }
        }
      }
    }
  }
  attr {
    key: "dtype"
    value {
      type: DT_INT32
    }
  }
  attr {
    key: "value"
    value {
      tensor {
        dtype: DT_INT32
        tensor_shape {
          dim {
            size: 1
          }
        }
        int_val: 1
      }
    }
  }
}
node {
  name: "dnn/input_from_feature_columns/input_layer/port/strided_slice"
  op: "StridedSlice"
  input: "dnn/input_from_feature_columns/input_layer/port/Shape"
  input: "dnn/input_from_feature_columns/input_layer/port/strided_slice/stack"
  input: "dnn/input_from_feature_columns/input_layer/port/strided_slice/stack_1"
  input: "dnn/input_from_feature_columns/input_layer/port/strided_slice/stack_2"
  attr {
    key: "Index"
    value {
      type: DT_INT32
    }
  }
  attr {
    key: "T"
    value {
      type: DT_INT32
    }
  }
  attr {
    key: "_output_shapes"
    value {
      list {
        shape {
        }
      }
    }
  }
  attr {
    key: "begin_mask"
    value {
      i: 0
    }
  }
  attr {
    key: "ellipsis_mask"
    value {
      i: 0
    }
  }
  attr {
    key: "end_mask"
    value {
      i: 0
    }
  }
  attr {
    key: "new_axis_mask"
    value {
      i: 0
    }
  }
  attr {
    key: "shrink_axis_mask"
    value {
      i: 1
    }
  }
}
node {
  name: "dnn/input_from_feature_columns/input_layer/port/Reshape/shape/1"
  op: "Const"
  attr {
    key: "_output_shapes"
    value {
      list {
        shape {
        }
      }
    }
  }
  attr {
    key: "dtype"
    value {
      type: DT_INT32
    }
  }
  attr {
    key: "value"
    value {
      tensor {
        dtype: DT_INT32
        tensor_shape {
        }
        int_val: 1
      }
    }
  }
}
node {
  name: "dnn/input_from_feature_columns/input_layer/port/Reshape/shape"
  op: "Pack"
  input: "dnn/input_from_feature_columns/input_layer/port/strided_slice"
  input: "dnn/input_from_feature_columns/input_layer/port/Reshape/shape/1"
  attr {
    key: "N"
    value {
      i: 2
    }
  }
  attr {
    key: "T"
    value {
      type: DT_INT32
    }
  }
  attr {
    key: "_output_shapes"
    value {
      list {
        shape {
          dim {
            size: 2
          }
        }
      }
    }
  }
  attr {
    key: "axis"
    value {
      i: 0
    }
  }
}
node {
  name: "dnn/input_from_feature_columns/input_layer/port/Reshape"
  op: "Reshape"
  input: "dnn/input_from_feature_columns/input_layer/port/ToFloat"
  input: "dnn/input_from_feature_columns/input_layer/port/Reshape/shape"
  attr {
    key: "T"
    value {
      type: DT_FLOAT
    }
  }
  attr {
    key: "Tshape"
    value {
      type: DT_INT32
    }
  }
  attr {
    key: "_output_shapes"
    value {
      list {
        shape {
          dim {
            size: -1
          }
          dim {
            size: 1
          }
        }
      }
    }
  }
}
node {
  name: "dnn/input_from_feature_columns/input_layer/times/ExpandDims/dim"
  op: "Const"
  attr {
    key: "_output_shapes"
    value {
      list {
        shape {
        }
      }
    }
  }
  attr {
    key: "dtype"
    value {
      type: DT_INT32
    }
  }
  attr {
    key: "value"
    value {
      tensor {
        dtype: DT_INT32
        tensor_shape {
        }
        int_val: -1
      }
    }
  }
}
node {
  name: "dnn/input_from_feature_columns/input_layer/times/ExpandDims"
  op: "ExpandDims"
  input: "IteratorGetNext:4"
  input: "dnn/input_from_feature_columns/input_layer/times/ExpandDims/dim"
  attr {
    key: "T"
    value {
      type: DT_INT64
    }
  }
  attr {
    key: "Tdim"
    value {
      type: DT_INT32
    }
  }
  attr {
    key: "_output_shapes"
    value {
      list {
        shape {
          dim {
            size: -1
          }
          dim {
            size: 1
          }
        }
      }
    }
  }
}
node {
  name: "dnn/input_from_feature_columns/input_layer/times/ToFloat"
  op: "Cast"
  input: "dnn/input_from_feature_columns/input_layer/times/ExpandDims"
  attr {
    key: "DstT"
    value {
      type: DT_FLOAT
    }
  }
  attr {
    key: "SrcT"
    value {
      type: DT_INT64
    }
  }
  attr {
    key: "_output_shapes"
    value {
      list {
        shape {
          dim {
            size: -1
          }
          dim {
            size: 1
          }
        }
      }
    }
  }
}
node {
  name: "dnn/input_from_feature_columns/input_layer/times/Shape"
  op: "Shape"
  input: "dnn/input_from_feature_columns/input_layer/times/ToFloat"
  attr {
    key: "T"
    value {
      type: DT_FLOAT
    }
  }
  attr {
    key: "_output_shapes"
    value {
      list {
        shape {
          dim {
            size: 2
          }
        }
      }
    }
  }
  attr {
    key: "out_type"
    value {
      type: DT_INT32
    }
  }
}
node {
  name: "dnn/input_from_feature_columns/input_layer/times/strided_slice/stack"
  op: "Const"
  attr {
    key: "_output_shapes"
    value {
      list {
        shape {
          dim {
            size: 1
          }
        }
      }
    }
  }
  attr {
    key: "dtype"
    value {
      type: DT_INT32
    }
  }
  attr {
    key: "value"
    value {
      tensor {
        dtype: DT_INT32
        tensor_shape {
          dim {
            size: 1
          }
        }
        int_val: 0
      }
    }
  }
}
node {
  name: "dnn/input_from_feature_columns/input_layer/times/strided_slice/stack_1"
  op: "Const"
  attr {
    key: "_output_shapes"
    value {
      list {
        shape {
          dim {
            size: 1
          }
        }
      }
    }
  }
  attr {
    key: "dtype"
    value {
      type: DT_INT32
    }
  }
  attr {
    key: "value"
    value {
      tensor {
        dtype: DT_INT32
        tensor_shape {
          dim {
            size: 1
          }
        }
        int_val: 1
      }
    }
  }
}
node {
  name: "dnn/input_from_feature_columns/input_layer/times/strided_slice/stack_2"
  op: "Const"
  attr {
    key: "_output_shapes"
    value {
      list {
        shape {
          dim {
            size: 1
          }
        }
      }
    }
  }
  attr {
    key: "dtype"
    value {
      type: DT_INT32
    }
  }
  attr {
    key: "value"
    value {
      tensor {
        dtype: DT_INT32
        tensor_shape {
          dim {
            size: 1
          }
        }
        int_val: 1
      }
    }
  }
}
node {
  name: "dnn/input_from_feature_columns/input_layer/times/strided_slice"
  op: "StridedSlice"
  input: "dnn/input_from_feature_columns/input_layer/times/Shape"
  input: "dnn/input_from_feature_columns/input_layer/times/strided_slice/stack"
  input: "dnn/input_from_feature_columns/input_layer/times/strided_slice/stack_1"
  input: "dnn/input_from_feature_columns/input_layer/times/strided_slice/stack_2"
  attr {
    key: "Index"
    value {
      type: DT_INT32
    }
  }
  attr {
    key: "T"
    value {
      type: DT_INT32
    }
  }
  attr {
    key: "_output_shapes"
    value {
      list {
        shape {
        }
      }
    }
  }
  attr {
    key: "begin_mask"
    value {
      i: 0
    }
  }
  attr {
    key: "ellipsis_mask"
    value {
      i: 0
    }
  }
  attr {
    key: "end_mask"
    value {
      i: 0
    }
  }
  attr {
    key: "new_axis_mask"
    value {
      i: 0
    }
  }
  attr {
    key: "shrink_axis_mask"
    value {
      i: 1
    }
  }
}
node {
  name: "dnn/input_from_feature_columns/input_layer/times/Reshape/shape/1"
  op: "Const"
  attr {
    key: "_output_shapes"
    value {
      list {
        shape {
        }
      }
    }
  }
  attr {
    key: "dtype"
    value {
      type: DT_INT32
    }
  }
  attr {
    key: "value"
    value {
      tensor {
        dtype: DT_INT32
        tensor_shape {
        }
        int_val: 1
      }
    }
  }
}
node {
  name: "dnn/input_from_feature_columns/input_layer/times/Reshape/shape"
  op: "Pack"
  input: "dnn/input_from_feature_columns/input_layer/times/strided_slice"
  input: "dnn/input_from_feature_columns/input_layer/times/Reshape/shape/1"
  attr {
    key: "N"
    value {
      i: 2
    }
  }
  attr {
    key: "T"
    value {
      type: DT_INT32
    }
  }
  attr {
    key: "_output_shapes"
    value {
      list {
        shape {
          dim {
            size: 2
          }
        }
      }
    }
  }
  attr {
    key: "axis"
    value {
      i: 0
    }
  }
}
node {
  name: "dnn/input_from_feature_columns/input_layer/times/Reshape"
  op: "Reshape"
  input: "dnn/input_from_feature_columns/input_layer/times/ToFloat"
  input: "dnn/input_from_feature_columns/input_layer/times/Reshape/shape"
  attr {
    key: "T"
    value {
      type: DT_FLOAT
    }
  }
  attr {
    key: "Tshape"
    value {
      type: DT_INT32
    }
  }
  attr {
    key: "_output_shapes"
    value {
      list {
        shape {
          dim {
            size: -1
          }
          dim {
            size: 1
          }
        }
      }
    }
  }
}
node {
  name: "dnn/input_from_feature_columns/input_layer/zip/ExpandDims/dim"
  op: "Const"
  attr {
    key: "_output_shapes"
    value {
      list {
        shape {
        }
      }
    }
  }
  attr {
    key: "dtype"
    value {
      type: DT_INT32
    }
  }
  attr {
    key: "value"
    value {
      tensor {
        dtype: DT_INT32
        tensor_shape {
        }
        int_val: -1
      }
    }
  }
}
node {
  name: "dnn/input_from_feature_columns/input_layer/zip/ExpandDims"
  op: "ExpandDims"
  input: "IteratorGetNext:5"
  input: "dnn/input_from_feature_columns/input_layer/zip/ExpandDims/dim"
  attr {
    key: "T"
    value {
      type: DT_INT64
    }
  }
  attr {
    key: "Tdim"
    value {
      type: DT_INT32
    }
  }
  attr {
    key: "_output_shapes"
    value {
      list {
        shape {
          dim {
            size: -1
          }
          dim {
            size: 1
          }
        }
      }
    }
  }
}
node {
  name: "dnn/input_from_feature_columns/input_layer/zip/ToFloat"
  op: "Cast"
  input: "dnn/input_from_feature_columns/input_layer/zip/ExpandDims"
  attr {
    key: "DstT"
    value {
      type: DT_FLOAT
    }
  }
  attr {
    key: "SrcT"
    value {
      type: DT_INT64
    }
  }
  attr {
    key: "_output_shapes"
    value {
      list {
        shape {
          dim {
            size: -1
          }
          dim {
            size: 1
          }
        }
      }
    }
  }
}
node {
  name: "dnn/input_from_feature_columns/input_layer/zip/Shape"
  op: "Shape"
  input: "dnn/input_from_feature_columns/input_layer/zip/ToFloat"
  attr {
    key: "T"
    value {
      type: DT_FLOAT
    }
  }
  attr {
    key: "_output_shapes"
    value {
      list {
        shape {
          dim {
            size: 2
          }
        }
      }
    }
  }
  attr {
    key: "out_type"
    value {
      type: DT_INT32
    }
  }
}
node {
  name: "dnn/input_from_feature_columns/input_layer/zip/strided_slice/stack"
  op: "Const"
  attr {
    key: "_output_shapes"
    value {
      list {
        shape {
          dim {
            size: 1
          }
        }
      }
    }
  }
  attr {
    key: "dtype"
    value {
      type: DT_INT32
    }
  }
  attr {
    key: "value"
    value {
      tensor {
        dtype: DT_INT32
        tensor_shape {
          dim {
            size: 1
          }
        }
        int_val: 0
      }
    }
  }
}
node {
  name: "dnn/input_from_feature_columns/input_layer/zip/strided_slice/stack_1"
  op: "Const"
  attr {
    key: "_output_shapes"
    value {
      list {
        shape {
          dim {
            size: 1
          }
        }
      }
    }
  }
  attr {
    key: "dtype"
    value {
      type: DT_INT32
    }
  }
  attr {
    key: "value"
    value {
      tensor {
        dtype: DT_INT32
        tensor_shape {
          dim {
            size: 1
          }
        }
        int_val: 1
      }
    }
  }
}
node {
  name: "dnn/input_from_feature_columns/input_layer/zip/strided_slice/stack_2"
  op: "Const"
  attr {
    key: "_output_shapes"
    value {
      list {
        shape {
          dim {
            size: 1
          }
        }
      }
    }
  }
  attr {
    key: "dtype"
    value {
      type: DT_INT32
    }
  }
  attr {
    key: "value"
    value {
      tensor {
        dtype: DT_INT32
        tensor_shape {
          dim {
            size: 1
          }
        }
        int_val: 1
      }
    }
  }
}
node {
  name: "dnn/input_from_feature_columns/input_layer/zip/strided_slice"
  op: "StridedSlice"
  input: "dnn/input_from_feature_columns/input_layer/zip/Shape"
  input: "dnn/input_from_feature_columns/input_layer/zip/strided_slice/stack"
  input: "dnn/input_from_feature_columns/input_layer/zip/strided_slice/stack_1"
  input: "dnn/input_from_feature_columns/input_layer/zip/strided_slice/stack_2"
  attr {
    key: "Index"
    value {
      type: DT_INT32
    }
  }
  attr {
    key: "T"
    value {
      type: DT_INT32
    }
  }
  attr {
    key: "_output_shapes"
    value {
      list {
        shape {
        }
      }
    }
  }
  attr {
    key: "begin_mask"
    value {
      i: 0
    }
  }
  attr {
    key: "ellipsis_mask"
    value {
      i: 0
    }
  }
  attr {
    key: "end_mask"
    value {
      i: 0
    }
  }
  attr {
    key: "new_axis_mask"
    value {
      i: 0
    }
  }
  attr {
    key: "shrink_axis_mask"
    value {
      i: 1
    }
  }
}
node {
  name: "dnn/input_from_feature_columns/input_layer/zip/Reshape/shape/1"
  op: "Const"
  attr {
    key: "_output_shapes"
    value {
      list {
        shape {
        }
      }
    }
  }
  attr {
    key: "dtype"
    value {
      type: DT_INT32
    }
  }
  attr {
    key: "value"
    value {
      tensor {
        dtype: DT_INT32
        tensor_shape {
        }
        int_val: 1
      }
    }
  }
}
node {
  name: "dnn/input_from_feature_columns/input_layer/zip/Reshape/shape"
  op: "Pack"
  input: "dnn/input_from_feature_columns/input_layer/zip/strided_slice"
  input: "dnn/input_from_feature_columns/input_layer/zip/Reshape/shape/1"
  attr {
    key: "N"
    value {
      i: 2
    }
  }
  attr {
    key: "T"
    value {
      type: DT_INT32
    }
  }
  attr {
    key: "_output_shapes"
    value {
      list {
        shape {
          dim {
            size: 2
          }
        }
      }
    }
  }
  attr {
    key: "axis"
    value {
      i: 0
    }
  }
}
node {
  name: "dnn/input_from_feature_columns/input_layer/zip/Reshape"
  op: "Reshape"
  input: "dnn/input_from_feature_columns/input_layer/zip/ToFloat"
  input: "dnn/input_from_feature_columns/input_layer/zip/Reshape/shape"
  attr {
    key: "T"
    value {
      type: DT_FLOAT
    }
  }
  attr {
    key: "Tshape"
    value {
      type: DT_INT32
    }
  }
  attr {
    key: "_output_shapes"
    value {
      list {
        shape {
          dim {
            size: -1
          }
          dim {
            size: 1
          }
        }
      }
    }
  }
}
node {
  name: "dnn/input_from_feature_columns/input_layer/concat/axis"
  op: "Const"
  attr {
    key: "_output_shapes"
    value {
      list {
        shape {
        }
      }
    }
  }
  attr {
    key: "dtype"
    value {
      type: DT_INT32
    }
  }
  attr {
    key: "value"
    value {
      tensor {
        dtype: DT_INT32
        tensor_shape {
        }
        int_val: 1
      }
    }
  }
}
node {
  name: "dnn/input_from_feature_columns/input_layer/concat"
  op: "ConcatV2"
  input: "dnn/input_from_feature_columns/input_layer/port/Reshape"
  input: "dnn/input_from_feature_columns/input_layer/times/Reshape"
  input: "dnn/input_from_feature_columns/input_layer/zip/Reshape"
  input: "dnn/input_from_feature_columns/input_layer/concat/axis"
  attr {
    key: "N"
    value {
      i: 3
    }
  }
  attr {
    key: "T"
    value {
      type: DT_FLOAT
    }
  }
  attr {
    key: "Tidx"
    value {
      type: DT_INT32
    }
  }
  attr {
    key: "_output_shapes"
    value {
      list {
        shape {
          dim {
            size: -1
          }
          dim {
            size: 3
          }
        }
      }
    }
  }
}
node {
  name: "dnn/hiddenlayer_0/kernel/part_0/Initializer/random_uniform/shape"
  op: "Const"
  attr {
    key: "_class"
    value {
      list {
        s: "loc:@dnn/hiddenlayer_0/kernel/part_0"
      }
    }
  }
  attr {
    key: "_output_shapes"
    value {
      list {
        shape {
          dim {
            size: 2
          }
        }
      }
    }
  }
  attr {
    key: "dtype"
    value {
      type: DT_INT32
    }
  }
  attr {
    key: "value"
    value {
      tensor {
        dtype: DT_INT32
        tensor_shape {
          dim {
            size: 2
          }
        }
        tensor_content: "\003\000\000\000d\000\000\000"
      }
    }
  }
}
node {
  name: "dnn/hiddenlayer_0/kernel/part_0/Initializer/random_uniform/min"
  op: "Const"
  attr {
    key: "_class"
    value {
      list {
        s: "loc:@dnn/hiddenlayer_0/kernel/part_0"
      }
    }
  }
  attr {
    key: "_output_shapes"
    value {
      list {
        shape {
        }
      }
    }
  }
  attr {
    key: "dtype"
    value {
      type: DT_FLOAT
    }
  }
  attr {
    key: "value"
    value {
      tensor {
        dtype: DT_FLOAT
        tensor_shape {
        }
        float_val: -0.241355389357
      }
    }
  }
}
node {
  name: "dnn/hiddenlayer_0/kernel/part_0/Initializer/random_uniform/max"
  op: "Const"
  attr {
    key: "_class"
    value {
      list {
        s: "loc:@dnn/hiddenlayer_0/kernel/part_0"
      }
    }
  }
  attr {
    key: "_output_shapes"
    value {
      list {
        shape {
        }
      }
    }
  }
  attr {
    key: "dtype"
    value {
      type: DT_FLOAT
    }
  }
  attr {
    key: "value"
    value {
      tensor {
        dtype: DT_FLOAT
        tensor_shape {
        }
        float_val: 0.241355389357
      }
    }
  }
}
node {
  name: "dnn/hiddenlayer_0/kernel/part_0/Initializer/random_uniform/RandomUniform"
  op: "RandomUniform"
  input: "dnn/hiddenlayer_0/kernel/part_0/Initializer/random_uniform/shape"
  attr {
    key: "T"
    value {
      type: DT_INT32
    }
  }
  attr {
    key: "_class"
    value {
      list {
        s: "loc:@dnn/hiddenlayer_0/kernel/part_0"
      }
    }
  }
  attr {
    key: "_output_shapes"
    value {
      list {
        shape {
          dim {
            size: 3
          }
          dim {
            size: 100
          }
        }
      }
    }
  }
  attr {
    key: "dtype"
    value {
      type: DT_FLOAT
    }
  }
  attr {
    key: "seed"
    value {
      i: 0
    }
  }
  attr {
    key: "seed2"
    value {
      i: 0
    }
  }
}
node {
  name: "dnn/hiddenlayer_0/kernel/part_0/Initializer/random_uniform/sub"
  op: "Sub"
  input: "dnn/hiddenlayer_0/kernel/part_0/Initializer/random_uniform/max"
  input: "dnn/hiddenlayer_0/kernel/part_0/Initializer/random_uniform/min"
  attr {
    key: "T"
    value {
      type: DT_FLOAT
    }
  }
  attr {
    key: "_class"
    value {
      list {
        s: "loc:@dnn/hiddenlayer_0/kernel/part_0"
      }
    }
  }
  attr {
    key: "_output_shapes"
    value {
      list {
        shape {
        }
      }
    }
  }
}
node {
  name: "dnn/hiddenlayer_0/kernel/part_0/Initializer/random_uniform/mul"
  op: "Mul"
  input: "dnn/hiddenlayer_0/kernel/part_0/Initializer/random_uniform/RandomUniform"
  input: "dnn/hiddenlayer_0/kernel/part_0/Initializer/random_uniform/sub"
  attr {
    key: "T"
    value {
      type: DT_FLOAT
    }
  }
  attr {
    key: "_class"
    value {
      list {
        s: "loc:@dnn/hiddenlayer_0/kernel/part_0"
      }
    }
  }
  attr {
    key: "_output_shapes"
    value {
      list {
        shape {
          dim {
            size: 3
          }
          dim {
            size: 100
          }
        }
      }
    }
  }
}
node {
  name: "dnn/hiddenlayer_0/kernel/part_0/Initializer/random_uniform"
  op: "Add"
  input: "dnn/hiddenlayer_0/kernel/part_0/Initializer/random_uniform/mul"
  input: "dnn/hiddenlayer_0/kernel/part_0/Initializer/random_uniform/min"
  attr {
    key: "T"
    value {
      type: DT_FLOAT
    }
  }
  attr {
    key: "_class"
    value {
      list {
        s: "loc:@dnn/hiddenlayer_0/kernel/part_0"
      }
    }
  }
  attr {
    key: "_output_shapes"
    value {
      list {
        shape {
          dim {
            size: 3
          }
          dim {
            size: 100
          }
        }
      }
    }
  }
}
node {
  name: "dnn/hiddenlayer_0/kernel/part_0"
  op: "VariableV2"
  attr {
    key: "_class"
    value {
      list {
        s: "loc:@dnn/hiddenlayer_0/kernel/part_0"
      }
    }
  }
  attr {
    key: "_output_shapes"
    value {
      list {
        shape {
          dim {
            size: 3
          }
          dim {
            size: 100
          }
        }
      }
    }
  }
  attr {
    key: "container"
    value {
      s: ""
    }
  }
  attr {
    key: "dtype"
    value {
      type: DT_FLOAT
    }
  }
  attr {
    key: "shape"
    value {
      shape {
        dim {
          size: 3
        }
        dim {
          size: 100
        }
      }
    }
  }
  attr {
    key: "shared_name"
    value {
      s: ""
    }
  }
}
node {
  name: "dnn/hiddenlayer_0/kernel/part_0/Assign"
  op: "Assign"
  input: "dnn/hiddenlayer_0/kernel/part_0"
  input: "dnn/hiddenlayer_0/kernel/part_0/Initializer/random_uniform"
  attr {
    key: "T"
    value {
      type: DT_FLOAT
    }
  }
  attr {
    key: "_class"
    value {
      list {
        s: "loc:@dnn/hiddenlayer_0/kernel/part_0"
      }
    }
  }
  attr {
    key: "_output_shapes"
    value {
      list {
        shape {
          dim {
            size: 3
          }
          dim {
            size: 100
          }
        }
      }
    }
  }
  attr {
    key: "use_locking"
    value {
      b: true
    }
  }
  attr {
    key: "validate_shape"
    value {
      b: true
    }
  }
}
node {
  name: "dnn/hiddenlayer_0/kernel/part_0/read"
  op: "Identity"
  input: "dnn/hiddenlayer_0/kernel/part_0"
  attr {
    key: "T"
    value {
      type: DT_FLOAT
    }
  }
  attr {
    key: "_class"
    value {
      list {
        s: "loc:@dnn/hiddenlayer_0/kernel/part_0"
      }
    }
  }
  attr {
    key: "_output_shapes"
    value {
      list {
        shape {
          dim {
            size: 3
          }
          dim {
            size: 100
          }
        }
      }
    }
  }
}
node {
  name: "dnn/hiddenlayer_0/bias/part_0/Initializer/zeros"
  op: "Const"
  attr {
    key: "_class"
    value {
      list {
        s: "loc:@dnn/hiddenlayer_0/bias/part_0"
      }
    }
  }
  attr {
    key: "_output_shapes"
    value {
      list {
        shape {
          dim {
            size: 100
          }
        }
      }
    }
  }
  attr {
    key: "dtype"
    value {
      type: DT_FLOAT
    }
  }
  attr {
    key: "value"
    value {
      tensor {
        dtype: DT_FLOAT
        tensor_shape {
          dim {
            size: 100
          }
        }
        float_val: 0.0
      }
    }
  }
}
node {
  name: "dnn/hiddenlayer_0/bias/part_0"
  op: "VariableV2"
  attr {
    key: "_class"
    value {
      list {
        s: "loc:@dnn/hiddenlayer_0/bias/part_0"
      }
    }
  }
  attr {
    key: "_output_shapes"
    value {
      list {
        shape {
          dim {
            size: 100
          }
        }
      }
    }
  }
  attr {
    key: "container"
    value {
      s: ""
    }
  }
  attr {
    key: "dtype"
    value {
      type: DT_FLOAT
    }
  }
  attr {
    key: "shape"
    value {
      shape {
        dim {
          size: 100
        }
      }
    }
  }
  attr {
    key: "shared_name"
    value {
      s: ""
    }
  }
}
node {
  name: "dnn/hiddenlayer_0/bias/part_0/Assign"
  op: "Assign"
  input: "dnn/hiddenlayer_0/bias/part_0"
  input: "dnn/hiddenlayer_0/bias/part_0/Initializer/zeros"
  attr {
    key: "T"
    value {
      type: DT_FLOAT
    }
  }
  attr {
    key: "_class"
    value {
      list {
        s: "loc:@dnn/hiddenlayer_0/bias/part_0"
      }
    }
  }
  attr {
    key: "_output_shapes"
    value {
      list {
        shape {
          dim {
            size: 100
          }
        }
      }
    }
  }
  attr {
    key: "use_locking"
    value {
      b: true
    }
  }
  attr {
    key: "validate_shape"
    value {
      b: true
    }
  }
}
node {
  name: "dnn/hiddenlayer_0/bias/part_0/read"
  op: "Identity"
  input: "dnn/hiddenlayer_0/bias/part_0"
  attr {
    key: "T"
    value {
      type: DT_FLOAT
    }
  }
  attr {
    key: "_class"
    value {
      list {
        s: "loc:@dnn/hiddenlayer_0/bias/part_0"
      }
    }
  }
  attr {
    key: "_output_shapes"
    value {
      list {
        shape {
          dim {
            size: 100
          }
        }
      }
    }
  }
}
node {
  name: "dnn/hiddenlayer_0/kernel"
  op: "Identity"
  input: "dnn/hiddenlayer_0/kernel/part_0/read"
  attr {
    key: "T"
    value {
      type: DT_FLOAT
    }
  }
  attr {
    key: "_output_shapes"
    value {
      list {
        shape {
          dim {
            size: 3
          }
          dim {
            size: 100
          }
        }
      }
    }
  }
}
node {
  name: "dnn/hiddenlayer_0/MatMul"
  op: "MatMul"
  input: "dnn/input_from_feature_columns/input_layer/concat"
  input: "dnn/hiddenlayer_0/kernel"
  attr {
    key: "T"
    value {
      type: DT_FLOAT
    }
  }
  attr {
    key: "_output_shapes"
    value {
      list {
        shape {
          dim {
            size: -1
          }
          dim {
            size: 100
          }
        }
      }
    }
  }
  attr {
    key: "transpose_a"
    value {
      b: false
    }
  }
  attr {
    key: "transpose_b"
    value {
      b: false
    }
  }
}
node {
  name: "dnn/hiddenlayer_0/bias"
  op: "Identity"
  input: "dnn/hiddenlayer_0/bias/part_0/read"
  attr {
    key: "T"
    value {
      type: DT_FLOAT
    }
  }
  attr {
    key: "_output_shapes"
    value {
      list {
        shape {
          dim {
            size: 100
          }
        }
      }
    }
  }
}
node {
  name: "dnn/hiddenlayer_0/BiasAdd"
  op: "BiasAdd"
  input: "dnn/hiddenlayer_0/MatMul"
  input: "dnn/hiddenlayer_0/bias"
  attr {
    key: "T"
    value {
      type: DT_FLOAT
    }
  }
  attr {
    key: "_output_shapes"
    value {
      list {
        shape {
          dim {
            size: -1
          }
          dim {
            size: 100
          }
        }
      }
    }
  }
  attr {
    key: "data_format"
    value {
      s: "NHWC"
    }
  }
}
node {
  name: "dnn/hiddenlayer_0/Relu"
  op: "Relu"
  input: "dnn/hiddenlayer_0/BiasAdd"
  attr {
    key: "T"
    value {
      type: DT_FLOAT
    }
  }
  attr {
    key: "_output_shapes"
    value {
      list {
        shape {
          dim {
            size: -1
          }
          dim {
            size: 100
          }
        }
      }
    }
  }
}
node {
  name: "dnn/zero_fraction/zero"
  op: "Const"
  attr {
    key: "_output_shapes"
    value {
      list {
        shape {
        }
      }
    }
  }
  attr {
    key: "dtype"
    value {
      type: DT_FLOAT
    }
  }
  attr {
    key: "value"
    value {
      tensor {
        dtype: DT_FLOAT
        tensor_shape {
        }
        float_val: 0.0
      }
    }
  }
}
node {
  name: "dnn/zero_fraction/Equal"
  op: "Equal"
  input: "dnn/hiddenlayer_0/Relu"
  input: "dnn/zero_fraction/zero"
  attr {
    key: "T"
    value {
      type: DT_FLOAT
    }
  }
  attr {
    key: "_output_shapes"
    value {
      list {
        shape {
          dim {
            size: -1
          }
          dim {
            size: 100
          }
        }
      }
    }
  }
}
node {
  name: "dnn/zero_fraction/Cast"
  op: "Cast"
  input: "dnn/zero_fraction/Equal"
  attr {
    key: "DstT"
    value {
      type: DT_FLOAT
    }
  }
  attr {
    key: "SrcT"
    value {
      type: DT_BOOL
    }
  }
  attr {
    key: "_output_shapes"
    value {
      list {
        shape {
          dim {
            size: -1
          }
          dim {
            size: 100
          }
        }
      }
    }
  }
}
node {
  name: "dnn/zero_fraction/Const"
  op: "Const"
  attr {
    key: "_output_shapes"
    value {
      list {
        shape {
          dim {
            size: 2
          }
        }
      }
    }
  }
  attr {
    key: "dtype"
    value {
      type: DT_INT32
    }
  }
  attr {
    key: "value"
    value {
      tensor {
        dtype: DT_INT32
        tensor_shape {
          dim {
            size: 2
          }
        }
        tensor_content: "\000\000\000\000\001\000\000\000"
      }
    }
  }
}
node {
  name: "dnn/zero_fraction/Mean"
  op: "Mean"
  input: "dnn/zero_fraction/Cast"
  input: "dnn/zero_fraction/Const"
  attr {
    key: "T"
    value {
      type: DT_FLOAT
    }
  }
  attr {
    key: "Tidx"
    value {
      type: DT_INT32
    }
  }
  attr {
    key: "_output_shapes"
    value {
      list {
        shape {
        }
      }
    }
  }
  attr {
    key: "keep_dims"
    value {
      b: false
    }
  }
}
node {
  name: "dnn/dnn/hiddenlayer_0/fraction_of_zero_values/tags"
  op: "Const"
  attr {
    key: "_output_shapes"
    value {
      list {
        shape {
        }
      }
    }
  }
  attr {
    key: "dtype"
    value {
      type: DT_STRING
    }
  }
  attr {
    key: "value"
    value {
      tensor {
        dtype: DT_STRING
        tensor_shape {
        }
        string_val: "dnn/dnn/hiddenlayer_0/fraction_of_zero_values"
      }
    }
  }
}
node {
  name: "dnn/dnn/hiddenlayer_0/fraction_of_zero_values"
  op: "ScalarSummary"
  input: "dnn/dnn/hiddenlayer_0/fraction_of_zero_values/tags"
  input: "dnn/zero_fraction/Mean"
  attr {
    key: "T"
    value {
      type: DT_FLOAT
    }
  }
  attr {
    key: "_output_shapes"
    value {
      list {
        shape {
        }
      }
    }
  }
}
node {
  name: "dnn/dnn/hiddenlayer_0/activation/tag"
  op: "Const"
  attr {
    key: "_output_shapes"
    value {
      list {
        shape {
        }
      }
    }
  }
  attr {
    key: "dtype"
    value {
      type: DT_STRING
    }
  }
  attr {
    key: "value"
    value {
      tensor {
        dtype: DT_STRING
        tensor_shape {
        }
        string_val: "dnn/dnn/hiddenlayer_0/activation"
      }
    }
  }
}
node {
  name: "dnn/dnn/hiddenlayer_0/activation"
  op: "HistogramSummary"
  input: "dnn/dnn/hiddenlayer_0/activation/tag"
  input: "dnn/hiddenlayer_0/Relu"
  attr {
    key: "T"
    value {
      type: DT_FLOAT
    }
  }
  attr {
    key: "_output_shapes"
    value {
      list {
        shape {
        }
      }
    }
  }
}
node {
  name: "dnn/hiddenlayer_1/kernel/part_0/Initializer/random_uniform/shape"
  op: "Const"
  attr {
    key: "_class"
    value {
      list {
        s: "loc:@dnn/hiddenlayer_1/kernel/part_0"
      }
    }
  }
  attr {
    key: "_output_shapes"
    value {
      list {
        shape {
          dim {
            size: 2
          }
        }
      }
    }
  }
  attr {
    key: "dtype"
    value {
      type: DT_INT32
    }
  }
  attr {
    key: "value"
    value {
      tensor {
        dtype: DT_INT32
        tensor_shape {
          dim {
            size: 2
          }
        }
        tensor_content: "d\000\000\0002\000\000\000"
      }
    }
  }
}
node {
  name: "dnn/hiddenlayer_1/kernel/part_0/Initializer/random_uniform/min"
  op: "Const"
  attr {
    key: "_class"
    value {
      list {
        s: "loc:@dnn/hiddenlayer_1/kernel/part_0"
      }
    }
  }
  attr {
    key: "_output_shapes"
    value {
      list {
        shape {
        }
      }
    }
  }
  attr {
    key: "dtype"
    value {
      type: DT_FLOAT
    }
  }
  attr {
    key: "value"
    value {
      tensor {
        dtype: DT_FLOAT
        tensor_shape {
        }
        float_val: -0.20000000298
      }
    }
  }
}
node {
  name: "dnn/hiddenlayer_1/kernel/part_0/Initializer/random_uniform/max"
  op: "Const"
  attr {
    key: "_class"
    value {
      list {
        s: "loc:@dnn/hiddenlayer_1/kernel/part_0"
      }
    }
  }
  attr {
    key: "_output_shapes"
    value {
      list {
        shape {
        }
      }
    }
  }
  attr {
    key: "dtype"
    value {
      type: DT_FLOAT
    }
  }
  attr {
    key: "value"
    value {
      tensor {
        dtype: DT_FLOAT
        tensor_shape {
        }
        float_val: 0.20000000298
      }
    }
  }
}
node {
  name: "dnn/hiddenlayer_1/kernel/part_0/Initializer/random_uniform/RandomUniform"
  op: "RandomUniform"
  input: "dnn/hiddenlayer_1/kernel/part_0/Initializer/random_uniform/shape"
  attr {
    key: "T"
    value {
      type: DT_INT32
    }
  }
  attr {
    key: "_class"
    value {
      list {
        s: "loc:@dnn/hiddenlayer_1/kernel/part_0"
      }
    }
  }
  attr {
    key: "_output_shapes"
    value {
      list {
        shape {
          dim {
            size: 100
          }
          dim {
            size: 50
          }
        }
      }
    }
  }
  attr {
    key: "dtype"
    value {
      type: DT_FLOAT
    }
  }
  attr {
    key: "seed"
    value {
      i: 0
    }
  }
  attr {
    key: "seed2"
    value {
      i: 0
    }
  }
}
node {
  name: "dnn/hiddenlayer_1/kernel/part_0/Initializer/random_uniform/sub"
  op: "Sub"
  input: "dnn/hiddenlayer_1/kernel/part_0/Initializer/random_uniform/max"
  input: "dnn/hiddenlayer_1/kernel/part_0/Initializer/random_uniform/min"
  attr {
    key: "T"
    value {
      type: DT_FLOAT
    }
  }
  attr {
    key: "_class"
    value {
      list {
        s: "loc:@dnn/hiddenlayer_1/kernel/part_0"
      }
    }
  }
  attr {
    key: "_output_shapes"
    value {
      list {
        shape {
        }
      }
    }
  }
}
node {
  name: "dnn/hiddenlayer_1/kernel/part_0/Initializer/random_uniform/mul"
  op: "Mul"
  input: "dnn/hiddenlayer_1/kernel/part_0/Initializer/random_uniform/RandomUniform"
  input: "dnn/hiddenlayer_1/kernel/part_0/Initializer/random_uniform/sub"
  attr {
    key: "T"
    value {
      type: DT_FLOAT
    }
  }
  attr {
    key: "_class"
    value {
      list {
        s: "loc:@dnn/hiddenlayer_1/kernel/part_0"
      }
    }
  }
  attr {
    key: "_output_shapes"
    value {
      list {
        shape {
          dim {
            size: 100
          }
          dim {
            size: 50
          }
        }
      }
    }
  }
}
node {
  name: "dnn/hiddenlayer_1/kernel/part_0/Initializer/random_uniform"
  op: "Add"
  input: "dnn/hiddenlayer_1/kernel/part_0/Initializer/random_uniform/mul"
  input: "dnn/hiddenlayer_1/kernel/part_0/Initializer/random_uniform/min"
  attr {
    key: "T"
    value {
      type: DT_FLOAT
    }
  }
  attr {
    key: "_class"
    value {
      list {
        s: "loc:@dnn/hiddenlayer_1/kernel/part_0"
      }
    }
  }
  attr {
    key: "_output_shapes"
    value {
      list {
        shape {
          dim {
            size: 100
          }
          dim {
            size: 50
          }
        }
      }
    }
  }
}
node {
  name: "dnn/hiddenlayer_1/kernel/part_0"
  op: "VariableV2"
  attr {
    key: "_class"
    value {
      list {
        s: "loc:@dnn/hiddenlayer_1/kernel/part_0"
      }
    }
  }
  attr {
    key: "_output_shapes"
    value {
      list {
        shape {
          dim {
            size: 100
          }
          dim {
            size: 50
          }
        }
      }
    }
  }
  attr {
    key: "container"
    value {
      s: ""
    }
  }
  attr {
    key: "dtype"
    value {
      type: DT_FLOAT
    }
  }
  attr {
    key: "shape"
    value {
      shape {
        dim {
          size: 100
        }
        dim {
          size: 50
        }
      }
    }
  }
  attr {
    key: "shared_name"
    value {
      s: ""
    }
  }
}
node {
  name: "dnn/hiddenlayer_1/kernel/part_0/Assign"
  op: "Assign"
  input: "dnn/hiddenlayer_1/kernel/part_0"
  input: "dnn/hiddenlayer_1/kernel/part_0/Initializer/random_uniform"
  attr {
    key: "T"
    value {
      type: DT_FLOAT
    }
  }
  attr {
    key: "_class"
    value {
      list {
        s: "loc:@dnn/hiddenlayer_1/kernel/part_0"
      }
    }
  }
  attr {
    key: "_output_shapes"
    value {
      list {
        shape {
          dim {
            size: 100
          }
          dim {
            size: 50
          }
        }
      }
    }
  }
  attr {
    key: "use_locking"
    value {
      b: true
    }
  }
  attr {
    key: "validate_shape"
    value {
      b: true
    }
  }
}
node {
  name: "dnn/hiddenlayer_1/kernel/part_0/read"
  op: "Identity"
  input: "dnn/hiddenlayer_1/kernel/part_0"
  attr {
    key: "T"
    value {
      type: DT_FLOAT
    }
  }
  attr {
    key: "_class"
    value {
      list {
        s: "loc:@dnn/hiddenlayer_1/kernel/part_0"
      }
    }
  }
  attr {
    key: "_output_shapes"
    value {
      list {
        shape {
          dim {
            size: 100
          }
          dim {
            size: 50
          }
        }
      }
    }
  }
}
node {
  name: "dnn/hiddenlayer_1/bias/part_0/Initializer/zeros"
  op: "Const"
  attr {
    key: "_class"
    value {
      list {
        s: "loc:@dnn/hiddenlayer_1/bias/part_0"
      }
    }
  }
  attr {
    key: "_output_shapes"
    value {
      list {
        shape {
          dim {
            size: 50
          }
        }
      }
    }
  }
  attr {
    key: "dtype"
    value {
      type: DT_FLOAT
    }
  }
  attr {
    key: "value"
    value {
      tensor {
        dtype: DT_FLOAT
        tensor_shape {
          dim {
            size: 50
          }
        }
        float_val: 0.0
      }
    }
  }
}
node {
  name: "dnn/hiddenlayer_1/bias/part_0"
  op: "VariableV2"
  attr {
    key: "_class"
    value {
      list {
        s: "loc:@dnn/hiddenlayer_1/bias/part_0"
      }
    }
  }
  attr {
    key: "_output_shapes"
    value {
      list {
        shape {
          dim {
            size: 50
          }
        }
      }
    }
  }
  attr {
    key: "container"
    value {
      s: ""
    }
  }
  attr {
    key: "dtype"
    value {
      type: DT_FLOAT
    }
  }
  attr {
    key: "shape"
    value {
      shape {
        dim {
          size: 50
        }
      }
    }
  }
  attr {
    key: "shared_name"
    value {
      s: ""
    }
  }
}
node {
  name: "dnn/hiddenlayer_1/bias/part_0/Assign"
  op: "Assign"
  input: "dnn/hiddenlayer_1/bias/part_0"
  input: "dnn/hiddenlayer_1/bias/part_0/Initializer/zeros"
  attr {
    key: "T"
    value {
      type: DT_FLOAT
    }
  }
  attr {
    key: "_class"
    value {
      list {
        s: "loc:@dnn/hiddenlayer_1/bias/part_0"
      }
    }
  }
  attr {
    key: "_output_shapes"
    value {
      list {
        shape {
          dim {
            size: 50
          }
        }
      }
    }
  }
  attr {
    key: "use_locking"
    value {
      b: true
    }
  }
  attr {
    key: "validate_shape"
    value {
      b: true
    }
  }
}
node {
  name: "dnn/hiddenlayer_1/bias/part_0/read"
  op: "Identity"
  input: "dnn/hiddenlayer_1/bias/part_0"
  attr {
    key: "T"
    value {
      type: DT_FLOAT
    }
  }
  attr {
    key: "_class"
    value {
      list {
        s: "loc:@dnn/hiddenlayer_1/bias/part_0"
      }
    }
  }
  attr {
    key: "_output_shapes"
    value {
      list {
        shape {
          dim {
            size: 50
          }
        }
      }
    }
  }
}
node {
  name: "dnn/hiddenlayer_1/kernel"
  op: "Identity"
  input: "dnn/hiddenlayer_1/kernel/part_0/read"
  attr {
    key: "T"
    value {
      type: DT_FLOAT
    }
  }
  attr {
    key: "_output_shapes"
    value {
      list {
        shape {
          dim {
            size: 100
          }
          dim {
            size: 50
          }
        }
      }
    }
  }
}
node {
  name: "dnn/hiddenlayer_1/MatMul"
  op: "MatMul"
  input: "dnn/hiddenlayer_0/Relu"
  input: "dnn/hiddenlayer_1/kernel"
  attr {
    key: "T"
    value {
      type: DT_FLOAT
    }
  }
  attr {
    key: "_output_shapes"
    value {
      list {
        shape {
          dim {
            size: -1
          }
          dim {
            size: 50
          }
        }
      }
    }
  }
  attr {
    key: "transpose_a"
    value {
      b: false
    }
  }
  attr {
    key: "transpose_b"
    value {
      b: false
    }
  }
}
node {
  name: "dnn/hiddenlayer_1/bias"
  op: "Identity"
  input: "dnn/hiddenlayer_1/bias/part_0/read"
  attr {
    key: "T"
    value {
      type: DT_FLOAT
    }
  }
  attr {
    key: "_output_shapes"
    value {
      list {
        shape {
          dim {
            size: 50
          }
        }
      }
    }
  }
}
node {
  name: "dnn/hiddenlayer_1/BiasAdd"
  op: "BiasAdd"
  input: "dnn/hiddenlayer_1/MatMul"
  input: "dnn/hiddenlayer_1/bias"
  attr {
    key: "T"
    value {
      type: DT_FLOAT
    }
  }
  attr {
    key: "_output_shapes"
    value {
      list {
        shape {
          dim {
            size: -1
          }
          dim {
            size: 50
          }
        }
      }
    }
  }
  attr {
    key: "data_format"
    value {
      s: "NHWC"
    }
  }
}
node {
  name: "dnn/hiddenlayer_1/Relu"
  op: "Relu"
  input: "dnn/hiddenlayer_1/BiasAdd"
  attr {
    key: "T"
    value {
      type: DT_FLOAT
    }
  }
  attr {
    key: "_output_shapes"
    value {
      list {
        shape {
          dim {
            size: -1
          }
          dim {
            size: 50
          }
        }
      }
    }
  }
}
node {
  name: "dnn/zero_fraction_1/zero"
  op: "Const"
  attr {
    key: "_output_shapes"
    value {
      list {
        shape {
        }
      }
    }
  }
  attr {
    key: "dtype"
    value {
      type: DT_FLOAT
    }
  }
  attr {
    key: "value"
    value {
      tensor {
        dtype: DT_FLOAT
        tensor_shape {
        }
        float_val: 0.0
      }
    }
  }
}
node {
  name: "dnn/zero_fraction_1/Equal"
  op: "Equal"
  input: "dnn/hiddenlayer_1/Relu"
  input: "dnn/zero_fraction_1/zero"
  attr {
    key: "T"
    value {
      type: DT_FLOAT
    }
  }
  attr {
    key: "_output_shapes"
    value {
      list {
        shape {
          dim {
            size: -1
          }
          dim {
            size: 50
          }
        }
      }
    }
  }
}
node {
  name: "dnn/zero_fraction_1/Cast"
  op: "Cast"
  input: "dnn/zero_fraction_1/Equal"
  attr {
    key: "DstT"
    value {
      type: DT_FLOAT
    }
  }
  attr {
    key: "SrcT"
    value {
      type: DT_BOOL
    }
  }
  attr {
    key: "_output_shapes"
    value {
      list {
        shape {
          dim {
            size: -1
          }
          dim {
            size: 50
          }
        }
      }
    }
  }
}
node {
  name: "dnn/zero_fraction_1/Const"
  op: "Const"
  attr {
    key: "_output_shapes"
    value {
      list {
        shape {
          dim {
            size: 2
          }
        }
      }
    }
  }
  attr {
    key: "dtype"
    value {
      type: DT_INT32
    }
  }
  attr {
    key: "value"
    value {
      tensor {
        dtype: DT_INT32
        tensor_shape {
          dim {
            size: 2
          }
        }
        tensor_content: "\000\000\000\000\001\000\000\000"
      }
    }
  }
}
node {
  name: "dnn/zero_fraction_1/Mean"
  op: "Mean"
  input: "dnn/zero_fraction_1/Cast"
  input: "dnn/zero_fraction_1/Const"
  attr {
    key: "T"
    value {
      type: DT_FLOAT
    }
  }
  attr {
    key: "Tidx"
    value {
      type: DT_INT32
    }
  }
  attr {
    key: "_output_shapes"
    value {
      list {
        shape {
        }
      }
    }
  }
  attr {
    key: "keep_dims"
    value {
      b: false
    }
  }
}
node {
  name: "dnn/dnn/hiddenlayer_1/fraction_of_zero_values/tags"
  op: "Const"
  attr {
    key: "_output_shapes"
    value {
      list {
        shape {
        }
      }
    }
  }
  attr {
    key: "dtype"
    value {
      type: DT_STRING
    }
  }
  attr {
    key: "value"
    value {
      tensor {
        dtype: DT_STRING
        tensor_shape {
        }
        string_val: "dnn/dnn/hiddenlayer_1/fraction_of_zero_values"
      }
    }
  }
}
node {
  name: "dnn/dnn/hiddenlayer_1/fraction_of_zero_values"
  op: "ScalarSummary"
  input: "dnn/dnn/hiddenlayer_1/fraction_of_zero_values/tags"
  input: "dnn/zero_fraction_1/Mean"
  attr {
    key: "T"
    value {
      type: DT_FLOAT
    }
  }
  attr {
    key: "_output_shapes"
    value {
      list {
        shape {
        }
      }
    }
  }
}
node {
  name: "dnn/dnn/hiddenlayer_1/activation/tag"
  op: "Const"
  attr {
    key: "_output_shapes"
    value {
      list {
        shape {
        }
      }
    }
  }
  attr {
    key: "dtype"
    value {
      type: DT_STRING
    }
  }
  attr {
    key: "value"
    value {
      tensor {
        dtype: DT_STRING
        tensor_shape {
        }
        string_val: "dnn/dnn/hiddenlayer_1/activation"
      }
    }
  }
}
node {
  name: "dnn/dnn/hiddenlayer_1/activation"
  op: "HistogramSummary"
  input: "dnn/dnn/hiddenlayer_1/activation/tag"
  input: "dnn/hiddenlayer_1/Relu"
  attr {
    key: "T"
    value {
      type: DT_FLOAT
    }
  }
  attr {
…
            string_val: "PK"
            string_val: "PK"
            string_val: "PK"
            string_val: "PK"
            string_val: "PK"
            string_val: "US"
            string_val: "PK"
            string_val: "PK"
            string_val: "PK"
            string_val: "PK"
            string_val: "PK"
            string_val: "PK"
            string_val: "PK"
            string_val: "PK"
            string_val: "PK"
            string_val: "PK"
            string_val: "PK"
            string_val: "PK"
            string_val: "PK"
            string_val: "PK"
            string_val: "PK"
            string_val: "PK"
            string_val: "PK"
            string_val: "PK"
            string_val: "PK"
            string_val: "PK"
            string_val: "PK"
            string_val: "PK"
            string_val: "PK"
            string_val: "PK"
            string_val: "PK"
            string_val: "PK"
            string_val: "PK"
            string_val: "PK"
            string_val: "PK"
            string_val: "PK"
            string_val: "PK"
            string_val: "PK"
            string_val: "PK"
            string_val: "PK"
            string_val: "PK"
            string_val: "PK"
            string_val: "PK"
            string_val: "PK"
            string_val: "PK"
            string_val: "PK"
            string_val: "PK"
            string_val: "PK"
            string_val: "PK"
            string_val: "PK"
            string_val: "PK"
            string_val: "PK"
            string_val: "PK"
            string_val: "PK"
            string_val: "PK"
            string_val: "PK"
            string_val: "US"
            string_val: "PK"
            string_val: "PK"
            string_val: "PK"
            string_val: "PK"
            string_val: "PK"
            string_val: "PK"
            string_val: "PK"
            string_val: "PK"
            string_val: "PK"
            string_val: "PK"
            string_val: "PK"
            string_val: "PK"
            string_val: "PK"
            string_val: "PK"
            string_val: "PK"
            string_val: "PK"
            string_val: "PK"
            string_val: "PK"
            string_val: "PK"
            string_val: "PK"
            string_val: "PK"
            string_val: "PK"
            string_val: "PK"
            string_val: "PK"
            string_val: "PK"
            string_val: "PK"
            string_val: "PK"
            string_val: "PK"
            string_val: "US"
            string_val: "US"
            string_val: "RU"
            string_val: "RU"
            string_val: "RU"
            string_val: "RU"
            string_val: "RU"
            string_val: "RU"
            string_val: "RU"
            string_val: "RU"
            string_val: "RU"
            string_val: "RU"
            string_val: "RU"
            string_val: "RU"
            string_val: "RU"
            string_val: "RU"
            string_val: "RU"
            string_val: "RU"
            string_val: "RU"
            string_val: "RU"
            string_val: "RU"
            string_val: "RU"
            string_val: "RU"
            string_val: "RU"
            string_val: "RU"
            string_val: "RU"
            string_val: "RU"
            string_val: "RU"
            string_val: "RU"
            string_val: "RU"
            string_val: "RU"
            string_val: "RU"
            string_val: "RU"
            string_val: "RU"
            string_val: "RU"
            string_val: "RU"
            string_val: "RU"
            string_val: "RU"
            string_val: "RU"
            string_val: "RU"
            string_val: "RU"
            string_val: "RU"
            string_val: "RU"
            string_val: "RU"
            string_val: "RU"
            string_val: "RU"
            string_val: "RU"
            string_val: "RU"
            string_val: "RU"
            string_val: "RU"
            string_val: "RU"
            string_val: "RU"
            string_val: "RU"
            string_val: "RU"
            string_val: "RU"
            string_val: "RU"
            string_val: "RU"
            string_val: "RU"
            string_val: "RU"
            string_val: "RU"
            string_val: "RU"
            string_val: "RU"
            string_val: "RU"
            string_val: "RU"
            string_val: "RU"
            string_val: "RU"
            string_val: "RU"
            string_val: "RU"
            string_val: "RU"
            string_val: "RU"
            string_val: "RU"
            string_val: "RU"
            string_val: "RU"
            string_val: "RU"
            string_val: "RU"
            string_val: "RU"
            string_val: "RU"
            string_val: "RU"
            string_val: "RU"
            string_val: "RU"
            string_val: "RU"
            string_val: "RU"
            string_val: "RU"
            string_val: "RU"
            string_val: "RU"
            string_val: "RU"
            string_val: "MY"
            string_val: "MY"
            string_val: "MY"
            string_val: "MY"
            string_val: "MY"
            string_val: "MY"
            string_val: "MY"
            string_val: "MY"
            string_val: "MY"
            string_val: "MY"
            string_val: "MY"
            string_val: "MY"
            string_val: "MY"
            string_val: "MY"
            string_val: "MY"
            string_val: "MY"
            string_val: "MY"
            string_val: "MY"
            string_val: "MY"
            string_val: "MY"
            string_val: "MY"
            string_val: "MY"
            string_val: "MY"
            string_val: "MY"
            string_val: "MY"
            string_val: "MY"
            string_val: "MY"
            string_val: "MY"
            string_val: "MY"
            string_val: "MY"
            string_val: "MY"
            string_val: "MY"
            string_val: "MY"
            string_val: "MY"
            string_val: "MY"
            string_val: "MY"
            string_val: "MY"
            string_val: "MY"
            string_val: "MY"
            string_val: "MY"
            string_val: "MY"
            string_val: "MY"
            string_val: "MY"
            string_val: "MY"
            string_val: "MY"
            string_val: "MY"
            string_val: "MY"
            string_val: "MY"
            string_val: "MY"
            string_val: "MY"
            string_val: "MY"
            string_val: "MY"
            string_val: "MY"
            string_val: "MY"
            string_val: "MY"
            string_val: "MY"
            string_val: "MY"
            string_val: "MY"
            string_val: "MY"
            string_val: "MY"
            string_val: "MY"
            string_val: "MY"
            string_val: "MY"
            string_val: "MY"
            string_val: "MY"
            string_val: "MY"
            string_val: "MY"
            string_val: "MY"
            string_val: "MY"
            string_val: "MY"
            string_val: "MY"
            string_val: "MY"
            string_val: "MY"
            string_val: "MY"
            string_val: "MY"
            string_val: "MY"
            string_val: "MY"
            string_val: "MY"
            string_val: "MY"
            string_val: "MY"
            string_val: "SE"
            string_val: "SE"
            string_val: "SE"
            string_val: "SE"
            string_val: "SE"
            string_val: "SE"
            string_val: "SE"
            string_val: "SE"
            string_val: "SE"
            string_val: "SE"
            string_val: "SE"
            string_val: "SE"
            string_val: "SE"
            string_val: "SE"
            string_val: "SE"
            string_val: "SE"
            string_val: "SE"
            string_val: "SE"
            string_val: "SE"
            string_val: "SE"
            string_val: "SE"
            string_val: "SE"
            string_val: "SE"
            string_val: "SE"
            string_val: "SE"
            string_val: "SE"
            string_val: "SE"
            string_val: "SE"
            string_val: "SE"
            string_val: "SE"
            string_val: "SE"
            string_val: "SE"
            string_val: "SE"
            string_val: "SE"
            string_val: "SE"
            string_val: "SE"
            string_val: "SE"
            string_val: "SE"
            string_val: "SE"
            string_val: "SE"
            string_val: "SE"
            string_val: "SE"
            string_val: "SE"
            string_val: "SE"
            string_val: "SE"
            string_val: "SE"
            string_val: "SE"
            string_val: "SE"
            string_val: "SE"
            string_val: "SE"
            string_val: "SE"
            string_val: "SE"
            string_val: "SE"
            string_val: "SE"
            string_val: "SE"
            string_val: "SE"
            string_val: "SE"
            string_val: "SE"
            string_val: "SE"
            string_val: "SE"
            string_val: "SE"
            string_val: "SE"
            string_val: "SE"
            string_val: "SE"
            string_val: "SE"
            string_val: "SE"
            string_val: "SE"
            string_val: "SE"
            string_val: "SE"
            string_val: "SE"
            string_val: "SE"
            string_val: "SE"
            string_val: "SE"
            string_val: "SE"
            string_val: "SE"
            string_val: "SE"
            string_val: "SE"
            string_val: "SE"
            string_val: "SE"
            string_val: "SE"
            string_val: "SE"
            string_val: "SE"
            string_val: "SE"
            string_val: "SE"
            string_val: "SE"
            string_val: "SE"
            string_val: "SE"
            string_val: "SE"
            string_val: "US"
            string_val: "US"
            string_val: "US"
            string_val: "US"
            string_val: "US"
            string_val: "US"
            string_val: "US"
            string_val: "US"
            string_val: "US"
            string_val: "US"
            string_val: "US"
            string_val: "US"
            string_val: "US"
            string_val: "US"
            string_val: "US"
            string_val: "US"
            string_val: "US"
            string_val: "US"
            string_val: "US"
            string_val: "US"
            string_val: "US"
            string_val: "US"
            string_val: "US"
            string_val: "US"
            string_val: "US"
            string_val: "US"
            string_val: "US"
            string_val: "US"
            string_val: "US"
            string_val: "US"
          }
        }
      }
    }
    node_def {
      name: "TensorSliceDataset/tensors/component_2"
      op: "Const"
      attr {
        key: "dtype"
        value {
          type: DT_INT64
        }
      }
      attr {
        key: "value"
        value {
          tensor {
            dtype: DT_INT64
            tensor_shape {
              dim {
                size: 998
              }
            }
            tensor_content: "…"
          }
        }
      }
    }
    node_def {
      name: "TensorSliceDataset/tensors/component_3"
      op: "Const"
      attr {
        key: "dtype"
        value {
          type: DT_STRING
        }
      }
      attr {
        key: "value"
        value {
          tensor {
            dtype: DT_STRING
            tensor_shape {
              dim {
                size: 998
              }
            }
            string_val: "HTTP"
            string_val: "HTTP"
            string_val: "HTTP"
            string_val: "HTTP"
            string_val: "HTTP"
            string_val: "HTTP"
            string_val: "HTTP"
            string_val: "HTTP"
            string_val: "HTTP"
            string_val: "HTTP"
            string_val: "HTTP"
            string_val: "HTTP"
            string_val: "HTTP"
            string_val: "HTTP"
            string_val: "HTTP"
            string_val: "HTTP"
            string_val: "HTTP"
            string_val: "HTTP"
            string_val: "HTTP"
            string_val: "HTTP"
            string_val: "HTTP"
            string_val: "HTTP"
            string_val: "HTTP"
            string_val: "HTTP"
            string_val: "HTTP"
            string_val: "HTTP"
            string_val: "HTTP"
            string_val: "HTTP"
            string_val: "HTTP"
            string_val: "HTTP"
            string_val: "HTTP"
            string_val: "HTTP"
            string_val: "HTTP"
            string_val: "HTTP"
            string_val: "HTTP"
            string_val: "HTTP"
            string_val: "HTTP"
            string_val: "HTTP"
            string_val: "HTTP"
            string_val: "HTTP"
            string_val: "HTTP"
            string_val: "HTTP"
            string_val: "HTTP"
            string_val: "HTTP"
            string_val: "HTTP"
            string_val: "HTTP"
            string_val: "HTTP"
            string_val: "HTTP"
            string_val: "HTTP"
            string_val: "HTTP"
            string_val: "HTTP"
            string_val: "HTTP"
            string_val: "HTTP"
            string_val: "HTTP"
            string_val: "HTTP"
            string_val: "HTTP"
            string_val: "HTTP"
            string_val: "HTTP"
            string_val: "HTTP"
            string_val: "HTTP"
            string_val: "HTTP"
            string_val: "HTTP"
            string_val: "HTTP"
            string_val: "HTTP"
            string_val: "HTTP"
            string_val: "HTTP"
            string_val: "HTTP"
            string_val: "HTTP"
            string_val: "HTTP"
            string_val: "HTTP"
            string_val: "HTTP"
            string_val: "HTTP"
            string_val: "HTTP"
            string_val: "HTTP"
            string_val: "HTTP"
            string_val: "HTTP"
            string_val: "HTTP"
            string_val: "HTTP"
            string_val: "HTTP"
            string_val: "HTTP"
            string_val: "HTTP"
            string_val: "HTTP"
            string_val: "HTTP"
            string_val: "HTTP"
            string_val: "HTTP"
            string_val: "HTTP"
            string_val: "HTTP"
            string_val: "HTTP"
            string_val: "HTTP"
            string_val: "HTTP"
            string_val: "HTTP"
            string_val: "HTTP"
            string_val: "HTTP"
            string_val: "HTTP"
            string_val: "HTTP"
            string_val: "HTTP"
            string_val: "HTTP"
            string_val: "HTTP"
            string_val: "HTTP"
            string_val: "HTTP"
            string_val: "HTTP"
            string_val: "HTTP"
            string_val: "HTTP"
            string_val: "HTTP"
            string_val: "HTTP"
            string_val: "HTTP"
            string_val: "HTTP"
            string_val: "HTTP"
            string_val: "HTTP"
            string_val: "HTTP"
            string_val: "HTTP"
            string_val: "HTTP"
            string_val: "HTTP"
            string_val: "HTTP"
            string_val: "HTTP"
            string_val: "HTTP"
            string_val: "HTTP"
            string_val: "HTTP"
            string_val: "HTTP"
            string_val: "HTTP"
            string_val: "HTTP"
            string_val: "HTTP"
            string_val: "HTTP"
            string_val: "HTTP"
            string_val: "HTTP"
            string_val: "HTTP"
            string_val: "HTTP"
            string_val: "HTTP"
            string_val: "HTTP"
            string_val: "HTTP"
            string_val: "HTTP"
            string_val: "HTTP"
            string_val: "HTTP"
            string_val: "HTTP"
            string_val: "HTTP"
            string_val: "HTTP"
            string_val: "HTTP"
            string_val: "HTTP"
            string_val: "HTTP"
            string_val: "HTTP"
            string_val: "HTTP"
            string_val: "HTTP"
            string_val: "HTTP"
            string_val: "HTTP"
            string_val: "HTTP"
            string_val: "HTTP"
            string_val: "HTTP"
            string_val: "HTTP"
            string_val: "HTTP"
            string_val: "HTTP"
            string_val: "HTTP"
            string_val: "HTTP"
            string_val: "HTTP"
            string_val: "HTTP"
            string_val: "HTTP"
            string_val: "HTTP"
            string_val: "HTTP"
            string_val: "HTTP"
            string_val: "HTTP"
            string_val: "HTTP"
            string_val: "HTTP"
            string_val: "HTTP"
            string_val: "HTTP"
            string_val: "HTTP"
            string_val: "HTTP"
            string_val: "HTTP"
            string_val: "HTTP"
            string_val: "HTTP"
            string_val: "HTTP"
            string_val: "HTTP"
            string_val: "HTTP"
            string_val: "HTTP"
            string_val: "HTTP"
            string_val: "HTTP"
            string_val: "HTTP"
            string_val: "HTTP"
            string_val: "HTTP"
            string_val: "HTTP"
            string_val: "HTTP"
            string_val: "HTTP"
            string_val: "HTTP"
            string_val: "HTTP"
            string_val: "HTTP"
            string_val: "HTTP"
            string_val: "HTTP"
            string_val: "HTTP"
            string_val: "HTTP"
            string_val: "HTTP"
            string_val: "HTTP"
            string_val: "HTTP"
            string_val: "HTTP"
            string_val: "HTTP"
            string_val: "HTTP"
            string_val: "HTTP"
            string_val: "HTTP"
            string_val: "HTTP"
            string_val: "HTTP"
            string_val: "HTTP"
            string_val: "HTTP"
            string_val: "HTTP"
            string_val: "HTTP"
            string_val: "HTTP"
            string_val: "HTTP"
            string_val: "HTTP"
            string_val: "HTTP"
            string_val: "HTTP"
            string_val: "HTTP"
            string_val: "HTTP"
            string_val: "HTTP"
            string_val: "HTTP"
            string_val: "HTTP"
            string_val: "HTTP"
            string_val: "HTTP"
            string_val: "HTTP"
            string_val: "HTTP"
            string_val: "HTTP"
            string_val: "HTTP"
            string_val: "HTTP"
            string_val: "HTTP"
            string_val: "HTTP"
            string_val: "HTTP"
            string_val: "HTTP"
            string_val: "HTTP"
            string_val: "HTTP"
            string_val: "HTTP"
            string_val: "HTTP"
            string_val: "HTTP"
            string_val: "HTTP"
            string_val: "HTTP"
            string_val: "HTTP"
            string_val: "HTTP"
            string_val: "HTTP"
            string_val: "HTTP"
            string_val: "HTTP"
            string_val: "HTTP"
            string_val: "HTTP"
            string_val: "HTTP"
            string_val: "HTTP"
            string_val: "HTTP"
            string_val: "HTTP"
            string_val: "HTTP"
            string_val: "HTTP"
            string_val: "HTTP"
            string_val: "HTTP"
            string_val: "HTTP"
            string_val: "HTTP"
            string_val: "HTTP"
            string_val: "HTTP"
            string_val: "HTTP"
            string_val: "HTTP"
            string_val: "HTTP"
            string_val: "HTTP"
            string_val: "HTTP"
            string_val: "HTTP"
            string_val: "HTTP"
            string_val: "HTTP"
            string_val: "HTTP"
            string_val: "HTTP"
            string_val: "HTTP"
            string_val: "HTTP"
            string_val: "HTTP"
            string_val: "HTTP"
            string_val: "HTTP"
            string_val: "HTTP"
            string_val: "HTTP"
            string_val: "HTTP"
            string_val: "HTTP"
            string_val: "HTTP"
            string_val: "HTTP"
            string_val: "HTTP"
            string_val: "HTTP"
            string_val: "HTTP"
            string_val: "HTTP"
            string_val: "HTTP"
            string_val: "HTTP"
            string_val: "HTTP"
            string_val: "HTTP"
            string_val: "HTTP"
            string_val: "HTTP"
            string_val: "HTTP"
            string_val: "HTTP"
            string_val: "HTTP"
            string_val: "HTTP"
            string_val: "HTTP"
            string_val: "HTTP"
            string_val: "HTTP"
            string_val: "HTTP"
            string_val: "HTTP"
            string_val: "HTTP"
            string_val: "HTTP"
            string_val: "HTTP"
            string_val: "HTTP"
            string_val: "HTTP"
            string_val: "HTTP"
            string_val: "HTTP"
            string_val: "HTTP"
            string_val: "HTTP"
            string_val: "HTTP"
            string_val: "HTTP"
            string_val: "HTTP"
            string_val: "HTTP"
            string_val: "HTTP"
            string_val: "HTTP"
            string_val: "HTTP"
            string_val: "HTTP"
            string_val: "HTTP"
            string_val: "HTTP"
            string_val: "HTTP"
            string_val: "HTTP"
            string_val: "HTTP"
            string_val: "HTTP"
            string_val: "HTTP"
            string_val: "HTTP"
            string_val: "HTTP"
            string_val: "HTTP"
            string_val: "HTTP"
            string_val: "HTTP"
            string_val: "HTTP"
            string_val: "HTTP"
            string_val: "HTTP"
            string_val: "HTTP"
            string_val: "HTTP"
            string_val: "HTTP"
            string_val: "HTTP"
            string_val: "HTTP"
            string_val: "HTTP"
            string_val: "HTTP"
            string_val: "HTTP"
            string_val: "HTTP"
            string_val: "HTTP"
            string_val: "HTTP"
            string_val: "HTTP"
            string_val: "HTTP"
            string_val: "HTTP"
            string_val: "HTTP"
            string_val: "HTTP"
            string_val: "HTTP"
            string_val: "HTTP"
            string_val: "HTTP"
            string_val: "HTTP"
            string_val: "HTTP"
            string_val: "HTTP"
            string_val: "HTTP"
            string_val: "HTTP"
            string_val: "HTTP"
            string_val: "HTTP"
            string_val: "HTTP"
            string_val: "HTTP"
            string_val: "HTTP"
            string_val: "HTTP"
            string_val: "HTTP"
            string_val: "HTTP"
            string_val: "HTTP"
            string_val: "HTTP"
            string_val: "HTTP"
            string_val: "HTTP"
            string_val: "HTTP"
            string_val: "HTTP"
            string_val: "HTTP"
            string_val: "HTTP"
            string_val: "HTTP"
            string_val: "HTTP"
            string_val: "HTTP"
            string_val: "HTTP"
            string_val: "HTTP"
            string_val: "HTTP"
            string_val: "HTTP"
            string_val: "HTTP"
            string_val: "HTTP"
            string_val: "HTTP"
            string_val: "HTTP"
            string_val: "HTTP"
            string_val: "HTTP"
            string_val: "HTTP"
            string_val: "HTTP"
            string_val: "HTTP"
            string_val: "HTTP"
            string_val: "HTTP"
            string_val: "HTTP"
            string_val: "HTTP"
            string_val: "HTTP"
            string_val: "HTTP"
            string_val: "HTTP"
            string_val: "HTTP"
            string_val: "HTTP"
            string_val: "HTTP"
            string_val: "HTTP"
            string_val: "HTTP"
            string_val: "HTTP"
            string_val: "HTTP"
            string_val: "HTTP"
            string_val: "HTTP"
            string_val: "HTTP"
            string_val: "HTTP"
            string_val: "HTTP"
            string_val: "HTTP"
            string_val: "HTTP"
            string_val: "HTTP"
            string_val: "HTTP"
            string_val: "HTTP"
            string_val: "HTTP"
            string_val: "HTTP"
            string_val: "HTTP"
            string_val: "HTTP"
            string_val: "HTTP"
            string_val: "HTTP"
            string_val: "HTTP"
            string_val: "HTTP"
            string_val: "HTTP"
            string_val: "HTTP"
            string_val: "HTTP"
            string_val: "HTTP"
            string_val: "HTTP"
            string_val: "HTTP"
            string_val: "HTTP"
            string_val: "HTTP"
            string_val: "HTTP"
            string_val: "HTTP"
            string_val: "HTTP"
            string_val: "HTTP"
            string_val: "HTTP"
            string_val: "HTTP"
            string_val: "HTTP"
            string_val: "HTTP"
            string_val: "HTTP"
            string_val: "HTTP"
            string_val: "HTTP"
            string_val: "HTTP"
            string_val: "HTTP"
            string_val: "HTTP"
            string_val: "HTTP"
            string_val: "HTTP"
            string_val: "HTTP"
            string_val: "HTTP"
            string_val: "HTTP"
            string_val: "HTTP"
            string_val: "HTTP"
            string_val: "HTTP"
            string_val: "HTTP"
            string_val: "HTTP"
            string_val: "HTTP"
            string_val: "HTTP"
            string_val: "HTTP"
            string_val: "HTTP"
            string_val: "HTTP"
            string_val: "HTTP"
            string_val: "HTTP"
            string_val: "HTTP"
            string_val: "HTTP"
            string_val: "HTTP"
            string_val: "HTTP"
            string_val: "HTTP"
            string_val: "HTTP"
            string_val: "HTTP"
            string_val: "HTTP"
            string_val: "HTTP"
            string_val: "HTTP"
            string_val: "HTTP"
            string_val: "HTTP"
            string_val: "HTTP"
            string_val: "HTTP"
            string_val: "HTTP"
            string_val: "HTTP"
            string_val: "HTTP"
            string_val: "HTTP"
            string_val: "HTTP"
            string_val: "HTTP"
            string_val: "HTTP"
            string_val: "HTTP"
            string_val: "HTTP"
            string_val: "HTTP"
            string_val: "HTTP"
            string_val: "HTTP"
            string_val: "HTTP"
            string_val: "HTTP"
            string_val: "HTTP"
            string_val: "HTTP"
            string_val: "HTTP"
            string_val: "HTTP"
            string_val: "HTTP"
            string_val: "HTTP"
            string_val: "HTTP"
            string_val: "HTTP"
            string_val: "HTTP"
            string_val: "HTTP"
            string_val: "HTTP"
            string_val: "HTTP"
            string_val: "HTTP"
            string_val: "HTTP"
            string_val: "HTTP"
            string_val: "HTTP"
            string_val: "HTTP"
            string_val: "HTTP"
            string_val: "HTTP"
            string_val: "HTTP"
            string_val: "HTTP"
            string_val: "HTTP"
            string_val: "HTTP"
            string_val: "HTTP"
            string_val: "HTTP"
            string_val: "HTTP"
            string_val: "HTTP"
            string_val: "HTTP"
            string_val: "HTTP"
            string_val: "HTTP"
            string_val: "HTTP"
            string_val: "HTTP"
            string_val: "HTTP"
            string_val: "HTTP"
            string_val: "HTTP"
            string_val: "HTTP"
            string_val: "HTTP"
            string_val: "HTTP"
            string_val: "HTTP"
            string_val: "HTTP"
            string_val: "HTTP"
            string_val: "HTTP"
            string_val: "HTTP"
            string_val: "HTTP"
            string_val: "HTTP"
            string_val: "HTTP"
            string_val: "HTTP"
            string_val: "HTTP"
            string_val: "HTTP"
            string_val: "HTTP"
            string_val: "HTTP"
            string_val: "HTTP"
            string_val: "HTTP"
            string_val: "HTTP"
            string_val: "HTTP"
            string_val: "HTTP"
            string_val: "HTTP"
            string_val: "HTTP"
            string_val: "HTTP"
            string_val: "HTTP"
            string_val: "HTTP"
            string_val: "HTTP"
            string_val: "HTTP"
            string_val: "HTTP"
            string_val: "HTTP"
            string_val: "HTTP"
            string_val: "HTTP"
            string_val: "HTTP"
            string_val: "HTTP"
            string_val: "HTTP"
            string_val: "HTTP"
            string_val: "HTTP"
            string_val: "HTTP"
            string_val: "HTTP"
            string_val: "HTTP"
            string_val: "HTTP"
            string_val: "HTTP"
            string_val: "HTTP"
            string_val: "HTTP"
            string_val: "HTTP"
            string_val: "HTTP"
            string_val: "HTTP"
            string_val: "HTTP"
            string_val: "HTTP"
            string_val: "HTTP"
            string_val: "HTTP"
            string_val: "HTTP"
            string_val: "HTTP"
            string_val: "HTTP"
            string_val: "HTTP"
            string_val: "HTTP"
            string_val: "HTTP"
            string_val: "HTTP"
            string_val: "HTTP"
            string_val: "HTTP"
            string_val: "HTTP"
            string_val: "HTTP"
            string_val: "HTTP"
            string_val: "HTTP"
            string_val: "HTTP"
            string_val: "HTTP"
            string_val: "HTTP"
            string_val: "HTTP"
            string_val: "HTTP"
            string_val: "HTTP"
            string_val: "HTTP"
            string_val: "HTTP"
            string_val: "HTTP"
            string_val: "HTTP"
            string_val: "HTTP"
            string_val: "HTTP"
            string_val: "HTTP"
            string_val: "HTTP"
            string_val: "HTTP"
            string_val: "HTTP"
            string_val: "HTTP"
            string_val: "HTTP"
            string_val: "HTTP"
            string_val: "HTTP"
            string_val: "HTTP"
            string_val: "HTTP"
            string_val: "HTTP"
            string_val: "HTTP"
            string_val: "HTTP"
            string_val: "HTTP"
            string_val: "HTTP"
            string_val: "HTTP"
            string_val: "HTTP"
            string_val: "HTTP"
            string_val: "HTTP"
            string_val: "HTTP"
            string_val: "HTTP"
            string_val: "HTTP"
            string_val: "HTTP"
            string_val: "HTTP"
            string_val: "HTTP"
            string_val: "HTTP"
            string_val: "HTTP"
            string_val: "HTTP"
            string_val: "HTTP"
            string_val: "HTTP"
            string_val: "HTTP"
            string_val: "HTTP"
            string_val: "HTTP"
            string_val: "HTTP"
            string_val: "HTTP"
            string_val: "HTTP"
            string_val: "HTTP"
            string_val: "HTTP"
            string_val: "HTTP"
            string_val: "HTTP"
            string_val: "HTTP"
            string_val: "HTTP"
            string_val: "HTTP"
            string_val: "HTTP"
            string_val: "HTTP"
            string_val: "HTTP"
            string_val: "HTTP"
            string_val: "HTTP"
            string_val: "HTTP"
            string_val: "HTTP"
            string_val: "HTTP"
            string_val: "HTTP"
            string_val: "HTTP"
            string_val: "HTTP"
            string_val: "HTTP"
            string_val: "HTTP"
            string_val: "HTTP"
            string_val: "HTTP"
            string_val: "HTTP"
            string_val: "HTTP"
            string_val: "HTTP"
            string_val: "HTTP"
            string_val: "HTTP"
            string_val: "HTTP"
            string_val: "HTTP"
            string_val: "HTTP"
            string_val: "HTTP"
            string_val: "HTTP"
            string_val: "HTTP"
            string_val: "HTTP"
            string_val: "HTTP"
            string_val: "HTTP"
            string_val: "HTTP"
            string_val: "HTTP"
            string_val: "HTTP"
            string_val: "HTTP"
            string_val: "HTTP"
            string_val: "HTTP"
            string_val: "HTTP"
            string_val: "HTTP"
            string_val: "HTTP"
            string_val: "HTTP"
            string_val: "HTTP"
            string_val: "HTTP"
            string_val: "HTTP"
            string_val: "HTTP"
            string_val: "HTTP"
            string_val: "HTTP"
            string_val: "HTTP"
            string_val: "HTTP"
            string_val: "HTTP"
            string_val: "HTTP"
            string_val: "HTTP"
            string_val: "HTTP"
            string_val: "HTTP"
            string_val: "HTTP"
            string_val: "HTTP"
            string_val: "HTTP"
            string_val: "HTTP"
            string_val: "HTTP"
            string_val: "HTTP"
            string_val: "HTTP"
            string_val: "HTTP"
            string_val: "HTTP"
            string_val: "HTTP"
            string_val: "HTTP"
            string_val: "HTTP"
            string_val: "HTTP"
            string_val: "HTTP"
            string_val: "HTTP"
            string_val: "HTTP"
            string_val: "HTTP"
            string_val: "HTTP"
            string_val: "HTTP"
            string_val: "HTTP"
            string_val: "HTTP"
            string_val: "HTTP"
            string_val: "HTTP"
            string_val: "HTTP"
            string_val: "HTTP"
            string_val: "HTTP"
            string_val: "HTTP"
            string_val: "HTTP"
            string_val: "HTTP"
            string_val: "HTTP"
            string_val: "HTTP"
            string_val: "HTTP"
            string_val: "HTTP"
            string_val: "HTTP"
            string_val: "HTTP"
            string_val: "HTTP"
            string_val: "HTTP"
            string_val: "HTTP"
            string_val: "HTTP"
            string_val: "HTTP"
            string_val: "HTTP"
            string_val: "HTTP"
            string_val: "HTTP"
            string_val: "HTTP"
            string_val: "HTTP"
            string_val: "HTTP"
            string_val: "HTTP"
            string_val: "HTTP"
            string_val: "HTTP"
            string_val: "HTTP"
            string_val: "HTTP"
            string_val: "HTTP"
            string_val: "HTTP"
            string_val: "HTTP"
            string_val: "HTTP"
            string_val: "HTTP"
            string_val: "HTTP"
            string_val: "HTTP"
            string_val: "HTTP"
            string_val: "HTTP"
            string_val: "HTTP"
            string_val: "HTTP"
            string_val: "HTTP"
            string_val: "HTTP"
            string_val: "HTTP"
            string_val: "HTTP"
            string_val: "HTTP"
            string_val: "HTTP"
            string_val: "HTTP"
            string_val: "HTTP"
            string_val: "HTTP"
            string_val: "HTTP"
            string_val: "HTTP"
            string_val: "HTTP"
            string_val: "HTTP"
            string_val: "HTTP"
            string_val: "HTTP"
            string_val: "HTTP"
            string_val: "HTTP"
            string_val: "HTTP"
            string_val: "HTTP"
            string_val: "HTTP"
            string_val: "HTTP"
            string_val: "HTTP"
            string_val: "HTTP"
            string_val: "HTTP"
            string_val: "HTTP"
            string_val: "HTTP"
            string_val: "HTTP"
            string_val: "HTTP"
            string_val: "HTTP"
            string_val: "HTTP"
            string_val: "HTTP"
            string_val: "HTTP"
            string_val: "HTTP"
            string_val: "HTTP"
            string_val: "HTTP"
            string_val: "HTTP"
            string_val: "HTTP"
            string_val: "HTTP"
            string_val: "HTTP"
            string_val: "HTTP"
            string_val: "HTTP"
            string_val: "HTTP"
            string_val: "HTTP"
            string_val: "HTTP"
            string_val: "HTTP"
            string_val: "HTTP"
            string_val: "HTTP"
            string_val: "HTTP"
            string_val: "HTTP"
            string_val: "HTTP"
            string_val: "HTTP"
            string_val: "HTTP"
            string_val: "HTTP"
            string_val: "HTTP"
            string_val: "HTTP"
            string_val: "HTTP"
            string_val: "HTTP"
            string_val: "HTTP"
            string_val: "HTTP"
            string_val: "HTTP"
            string_val: "HTTP"
            string_val: "HTTP"
            string_val: "HTTP"
            string_val: "HTTP"
            string_val: "HTTP"
            string_val: "HTTP"
            string_val: "HTTP"
            string_val: "HTTP"
            string_val: "HTTP"
            string_val: "HTTP"
            string_val: "HTTP"
            string_val: "HTTP"
            string_val: "HTTP"
            string_val: "HTTP"
            string_val: "HTTP"
            string_val: "HTTP"
            string_val: "HTTP"
            string_val: "HTTP"
            string_val: "HTTP"
            string_val: "HTTP"
            string_val: "HTTP"
            string_val: "HTTP"
            string_val: "HTTP"
            string_val: "HTTP"
            string_val: "HTTP"
            string_val: "HTTP"
            string_val: "HTTP"
            string_val: "HTTP"
            string_val: "HTTP"
            string_val: "HTTP"
            string_val: "HTTP"
            string_val: "HTTP"
            string_val: "HTTP"
            string_val: "HTTP"
            string_val: "HTTP"
            string_val: "HTTP"
            string_val: "HTTP"
            string_val: "HTTP"
            string_val: "HTTP"
            string_val: "HTTP"
            string_val: "HTTP"
            string_val: "HTTP"
            string_val: "HTTP"
            string_val: "HTTP"
            string_val: "HTTP"
            string_val: "HTTP"
            string_val: "HTTP"
            string_val: "HTTP"
            string_val: "HTTP"
            string_val: "HTTP"
            string_val: "HTTP"
            string_val: "HTTP"
            string_val: "HTTP"
            string_val: "HTTP"
            string_val: "HTTP"
            string_val: "HTTP"
            string_val: "HTTP"
            string_val: "HTTP"
            string_val: "HTTP"
            string_val: "HTTP"
            string_val: "HTTP"
            string_val: "HTTP"
            string_val: "HTTP"
            string_val: "HTTP"
            string_val: "HTTP"
            string_val: "HTTP"
            string_val: "HTTP"
            string_val: "HTTP"
            string_val: "HTTP"
            string_val: "HTTP"
            string_val: "HTTP"
            string_val: "HTTP"
            string_val: "HTTP"
            string_val: "HTTP"
            string_val: "HTTP"
            string_val: "HTTP"
            string_val: "HTTP"
            string_val: "HTTP"
            string_val: "HTTP"
            string_val: "HTTP"
            string_val: "HTTP"
            string_val: "HTTP"
            string_val: "HTTP"
            string_val: "HTTP"
            string_val: "HTTP"
            string_val: "HTTP"
            string_val: "HTTP"
            string_val: "HTTP"
            string_val: "HTTP"
            string_val: "HTTP"
            string_val: "HTTP"
            string_val: "HTTP"
            string_val: "HTTP"
            string_val: "HTTP"
            string_val: "HTTP"
            string_val: "HTTP"
            string_val: "HTTP"
            string_val: "HTTP"
            string_val: "HTTP"
            string_val: "HTTP"
            string_val: "HTTP"
            string_val: "HTTP"
            string_val: "HTTP"
            string_val: "HTTP"
            string_val: "HTTP"
            string_val: "HTTP"
            string_val: "HTTP"
            string_val: "HTTP"
            string_val: "HTTP"
            string_val: "HTTP"
            string_val: "HTTP"
            string_val: "HTTP"
            string_val: "HTTP"
            string_val: "HTTP"
            string_val: "HTTP"
            string_val: "HTTP"
            string_val: "HTTP"
            string_val: "HTTP"
            string_val: "HTTP"
            string_val: "HTTP"
            string_val: "HTTP"
            string_val: "HTTP"
            string_val: "HTTP"
            string_val: "HTTP"
            string_val: "HTTP"
            string_val: "HTTP"
            string_val: "HTTP"
            string_val: "HTTP"
            string_val: "HTTP"
            string_val: "HTTP"
            string_val: "HTTP"
            string_val: "HTTP"
            string_val: "HTTP"
            string_val: "HTTP"
            string_val: "HTTP"
            string_val: "HTTP"
            string_val: "HTTP"
            string_val: "HTTP"
            string_val: "HTTP"
            string_val: "HTTP"
            string_val: "HTTP"
            string_val: "HTTP"
            string_val: "HTTP"
            string_val: "HTTP"
            string_val: "HTTP"
            string_val: "HTTP"
            string_val: "HTTP"
            string_val: "HTTP"
            string_val: "HTTP"
            string_val: "HTTP"
            string_val: "HTTP"
            string_val: "HTTP"
            string_val: "HTTP"
            string_val: "HTTP"
            string_val: "HTTP"
            string_val: "HTTP"
            string_val: "HTTP"
            string_val: "HTTP"
            string_val: "HTTP"
            string_val: "HTTP"
            string_val: "HTTP"
            string_val: "HTTP"
            string_val: "HTTP"
            string_val: "HTTP"
            string_val: "HTTP"
            string_val: "HTTP"
            string_val: "HTTP"
            string_val: "HTTP"
            string_val: "HTTP"
            string_val: "HTTP"
            string_val: "HTTP"
            string_val: "HTTP"
            string_val: "HTTP"
            string_val: "HTTP"
            string_val: "HTTP"
            string_val: "HTTP"
            string_val: "HTTP"
            string_val: "HTTP"
            string_val: "HTTP"
            string_val: "HTTP"
            string_val: "HTTP"
            string_val: "HTTP"
            string_val: "HTTP"
            string_val: "HTTP"
            string_val: "HTTP"
            string_val: "HTTP"
            string_val: "HTTP"
            string_val: "HTTP"
            string_val: "HTTP"
            string_val: "HTTP"
            string_val: "HTTP"
            string_val: "HTTP"
            string_val: "HTTP"
            string_val: "HTTP"
            string_val: "HTTP"
          }
        }
      }
    }
    node_def {
      name: "TensorSliceDataset/tensors/component_4"
      op: "Const"
      attr {
        key: "dtype"
        value {
          type: DT_INT64
        }
      }
      attr {
        key: "value"
        value {
          tensor {
            dtype: DT_INT64
            tensor_shape {
              dim {
                size: 998
              }
            }
            tensor_content: "…"
          }
        }
      }
    }
    node_def {
      name: "TensorSliceDataset/tensors/component_5"
      op: "Const"
      attr {
        key: "dtype"
        value {
          type: DT_INT64
        }
      }
      attr {
        key: "value"
        value {
          tensor {
            dtype: DT_INT64
            tensor_shape {
              dim {
                size: 998
              }
            }
            tensor_content: "…"
          }
        }
      }
    }
    node_def {
      name: "TensorSliceDataset/tensors/component_6"
      op: "Const"
      attr {
        key: "dtype"
        value {
          type: DT_INT64
        }
      }
      attr {
        key: "value"
        value {
          tensor {
            dtype: DT_INT64
            tensor_shape {
              dim {
                size: 998
              }
            }
            tensor_content: "…"
          }
        }
      }
    }
    node_def {
      name: "TensorSliceDataset"
      op: "TensorSliceDataset"
      input: "TensorSliceDataset/tensors/component_0:output:0"
      input: "TensorSliceDataset/tensors/component_1:output:0"
      input: "TensorSliceDataset/tensors/component_2:output:0"
      input: "TensorSliceDataset/tensors/component_3:output:0"
      input: "TensorSliceDataset/tensors/component_4:output:0"
      input: "TensorSliceDataset/tensors/component_5:output:0"
      input: "TensorSliceDataset/tensors/component_6:output:0"
      attr {
        key: "Toutput_types"
        value {
          list {
            type: DT_STRING
            type: DT_STRING
            type: DT_INT64
            type: DT_STRING
            type: DT_INT64
            type: DT_INT64
            type: DT_INT64
          }
        }
      }
      attr {
        key: "output_shapes"
        value {
          list {
            shape {
            }
            shape {
            }
            shape {
            }
            shape {
            }
            shape {
            }
            shape {
            }
            shape {
            }
          }
        }
      }
    }
    node_def {
      name: "ShuffleDataset/buffer_size"
      op: "Const"
      attr {
        key: "dtype"
        value {
          type: DT_INT64
        }
      }
      attr {
        key: "value"
        value {
          tensor {
            dtype: DT_INT64
            tensor_shape {
            }
            int64_val: 10000
          }
        }
      }
    }
    node_def {
      name: "ShuffleDataset/seed"
      op: "Const"
      attr {
        key: "dtype"
        value {
          type: DT_INT64
        }
      }
      attr {
        key: "value"
        value {
          tensor {
            dtype: DT_INT64
            tensor_shape {
            }
            int64_val: 0
          }
        }
      }
    }
    node_def {
      name: "ShuffleDataset/seed2"
      op: "Const"
      attr {
        key: "dtype"
        value {
          type: DT_INT64
        }
      }
      attr {
        key: "value"
        value {
          tensor {
            dtype: DT_INT64
            tensor_shape {
            }
            int64_val: 0
          }
        }
      }
    }
    node_def {
      name: "ShuffleDataset"
      op: "ShuffleDataset"
      input: "TensorSliceDataset:handle:0"
      input: "ShuffleDataset/buffer_size:output:0"
      input: "ShuffleDataset/seed:output:0"
      input: "ShuffleDataset/seed2:output:0"
      attr {
        key: "output_shapes"
        value {
          list {
            shape {
            }
            shape {
            }
            shape {
            }
            shape {
            }
            shape {
            }
            shape {
            }
            shape {
            }
          }
        }
      }
      attr {
        key: "output_types"
        value {
          list {
            type: DT_STRING
            type: DT_STRING
            type: DT_INT64
            type: DT_STRING
            type: DT_INT64
            type: DT_INT64
            type: DT_INT64
          }
        }
      }
      attr {
        key: "reshuffle_each_iteration"
        value {
          b: true
        }
      }
    }
    node_def {
      name: "RepeatDataset/count"
      op: "Const"
      attr {
        key: "dtype"
        value {
          type: DT_INT64
        }
      }
      attr {
        key: "value"
        value {
          tensor {
            dtype: DT_INT64
            tensor_shape {
            }
            int64_val: -1
          }
        }
      }
    }
    node_def {
      name: "RepeatDataset"
      op: "RepeatDataset"
      input: "ShuffleDataset:handle:0"
      input: "RepeatDataset/count:output:0"
      attr {
        key: "output_shapes"
        value {
          list {
            shape {
            }
            shape {
            }
            shape {
            }
            shape {
            }
            shape {
            }
            shape {
            }
            shape {
            }
          }
        }
      }
      attr {
        key: "output_types"
        value {
          list {
            type: DT_STRING
            type: DT_STRING
            type: DT_INT64
            type: DT_STRING
            type: DT_INT64
            type: DT_INT64
            type: DT_INT64
          }
        }
      }
    }
    node_def {
      name: "BatchDataset/batch_size"
      op: "Const"
      attr {
        key: "dtype"
        value {
          type: DT_INT64
        }
      }
      attr {
        key: "value"
        value {
          tensor {
            dtype: DT_INT64
            tensor_shape {
            }
            int64_val: 100
          }
        }
      }
    }
    node_def {
      name: "BatchDataset"
      op: "BatchDataset"
      input: "RepeatDataset:handle:0"
      input: "BatchDataset/batch_size:output:0"
      attr {
        key: "output_shapes"
        value {
          list {
            shape {
              dim {
                size: -1
              }
            }
            shape {
              dim {
                size: -1
              }
            }
            shape {
              dim {
                size: -1
              }
            }
            shape {
              dim {
                size: -1
              }
            }
            shape {
              dim {
                size: -1
              }
            }
            shape {
              dim {
                size: -1
              }
            }
            shape {
              dim {
                size: -1
              }
            }
          }
        }
      }
      attr {
        key: "output_types"
        value {
          list {
            type: DT_STRING
            type: DT_STRING
            type: DT_INT64
            type: DT_STRING
            type: DT_INT64
            type: DT_INT64
            type: DT_INT64
          }
        }
      }
    }
    ret {
      key: "batchdataset"
      value: "BatchDataset:handle:0"
    }
  }
}
versions {
  producer: 26
  min_consumer: 12
}
